models/cnn_weights.pth (torch, 27589 bytes, 5 tensors)

conv1.weight f4 [32, 15, 3]
0.08699284 0.058693364 0.006654156 -0.007865633 0.025367144 0.11112543 0.1410928 -0.019224988
0.031884562 -0.064935386 -0.10669849 0.0949177 0.071512334 -0.09013237 -0.124735676 0.07029398
-0.027842447 0.015570466 -0.057001565 0.06670222 0.12790877 -0.12323194 0.10700405 0.09919929
0.101844184 0.07528221 -0.11233289 -0.00053580536 0.11172268 -0.12811255 0.12965064 -0.07017755
0.11106307 -0.013942101 0.15937716 0.08359879 0.124942236 -0.10014538 -0.04812908 0.015626088
0.008454117 -0.046560716 -0.023738755 0.11781804 0.103598796 0.1003352 -0.15315515 -0.08590807
0.075066976 0.063921586 -0.11763233 0.03718584 -0.1932738 -0.104976885 -0.031243611 -0.0882011
0.03229458 0.077560194 0.12927592 0.09851166 0.058736484 0.08185836 -0.12924096 0.100016
-0.06145916 0.06392277 0.05634031 -0.048400164 -0.02330197 -0.18078548 -0.029928079 -0.10234292
-0.09522438 0.15782063 0.058336336 -0.086017154 0.0661305 0.14971681 -0.14548673 -0.11079543
0.05564719 -0.15418905 0.040577285 0.057029065 0.07765796 -0.19239184 0.10277533 -0.14966327
-0.05917069 -0.10051502 -0.13765998 -0.11421483 0.051148366 -0.02156655 0.05078864 0.12428551
-0.106523596 -0.16807611 0.03502682 0.12945147 -0.008709774 0.075065926 0.085830234 -0.025576549
0.15884794 -0.10934366 -0.055221662 0.045592118 -0.039648525 -0.0987509 -0.0043222476 0.080556504
0.14013956 0.093470745 0.070641145 -0.047740575 -0.09277761 -0.07060736 -0.04458462 0.016291223
-0.09179151 0.021543166 0.14412802 -0.16648684 -0.0905675 -0.12946527 -0.104738206 -0.010885758
-0.050283052 0.005989741 -0.066497706 -0.11195027 0.092003666 -0.12784167 -0.05668419 0.010320001
-0.05214261 0.12436202 0.11879421 -0.029631339 0.17007998 0.08824045 -0.030903282 -0.040380523
-0.092513785 -0.16598332 0.041484646 -0.12484172 0.016084353 -0.1373519 0.16939995 0.036837596
0.17984939 -0.07891261 -0.06889141 0.0007526704 0.081474096 -0.012837838 -0.031253196 -0.0053251497
0.121417336 0.15234406 -0.13896134 0.025995292 -0.082688525 0.1195924 -0.1400003 0.06551042
0.15356095 -0.09492326 0.1772707 0.074734405 -0.05998764 0.17362963 -0.10576898 -0.00651443
0.11636312 0.039591707 0.046580262 0.029890973 -0.040700085 -0.022198059 0.015758991 -0.017193748
0.04304371 0.10637726 0.19236891 0.1286563 -0.07916543 0.022775844 0.082106575 0.05433079
-0.12100384 -0.10086592 -0.18589185 -0.022804638 0.06817944 0.11412471 0.04039096 0.13703036
0.033873923 -0.05516486 0.11297551 -0.02114911 0.147661 0.096567966 0.17021964 -0.003904274
-0.046838764 -0.18711904 0.13178109 0.06324201 0.09792412 -0.03099387 0.16643228 -0.07925014
0.07171848 0.14434983 0.18062745 -0.09955335 -0.028553423 0.14212811 -0.061581984 -0.04717163
0.18564431 -0.098822474 0.022449926 -0.051692806 0.0031785583 -0.14416054 -0.12134071 -0.049138647
-0.09734071 0.06647837 0.15057117 0.06661602 0.15106755 0.04611011 0.19164048 -0.08637346
0.02426082 -0.04212254 -0.0026617295 0.009676033 -0.14732927 -0.06805086 -0.09235636 0.03047009
0.14945346 -0.027994497 0.06989143 -0.1596795 -0.055826943 0.054003116 -0.04659434 0.05049051
00000000: 4d29 b23d 7468 703d 1b0b da3b dbde 00bc
00000010: c2ce cf3c bb95 e33d a27a 103e b97d 9dbc
00000020: 6399 023d d8fc 84bd bd84 dabd 3664 c23d
00000030: 0f75 923d 5297 b8bd 6b75 ffbd 4af6 8f3d
00000040: d815 e4bc 451b 7f3c 797a 69bd 2c9b 883d
00000050: 84fa 023e 0761 fcbd f024 db3d ff28 cb3d
00000060: af93 d03d 8f2d 9a3d c90e e6bd 4a75 0cba
00000070: dcce e43d f02f 03be 23c3 043e 3fb9 8fbd
00000080: 0975 e33d 696d 64bc c433 233e d835 ab3d
00000090: b7e1 ff3d 0519 cdbd 0023 45bd 4802 803c
000000a0: 2383 0a3c 73b6 3ebd c777 c2bc 964a f13d
000000b0: 9b2b d43d 8b7c cd3d b4d4 1cbe 92f0 afbd
000000c0: b7bc 993d 52e9 823d 38e9 f0bd 2e50 183d
000000d0: 91e9 45be 1ffe d6bd 9af2 ffbc c7a2 b4bd
000000e0: 5247 043d e1d7 9e3d e860 043e 7bc0 c93d
000000f0: ab95 703d 5ba5 a73d be57 04be 30d5 cc3d
00000100: 9abc 7bbd f1e9 823d 19c5 663d 403f 46bd
00000110: c6e3 bebc d41f 39be bb2b f5bc 2a99 d1bd
00000120: 0005 c3bd bb9b 213e 15f2 6e3d c329 b0bd
00000130: 6d6f 873d 5d4f 193e 79fa 14be b7e8 e2bd
00000140: 4fee 633d bce3 1dbe 5e34 263d 4f97 693d
00000150: 230b 9f3d 5e02 45be df7b d23d 5441 19be
00000160: f75c 72bd d2da cdbd bdf6 0cbe 77e9 e9bd
00000170: f380 513d 55ac b0bc c007 503d 6789 fe3d
00000180: 0b29 dabd 251c 2cbe 4878 0f3d ed8e 043e
00000190: 71b3 0ebc 2abc 993d c3c7 af3d e985 d1bc
000001a0: 09a9 223e 92ef dfbd 1c30 62bd cdbe 3a3d
000001b0: 7e66 22bd e93d cabd a4a1 8dbb cffa a43d
000001c0: bf80 0f3e 976d bf3d 4eac 903d 9f8b 43bd
000001d0: 3002 bebd 979a 90bd 5d9e 36bd 2c75 853c
000001e0: 30fd bbbd 4b7b b03c 4c96 133e 877b 2abe
000001f0: 747b b9bd 8b92 04be fc80 d6bd 2e5a 32bc
00000200: 9af5 4dbd 9745 c43b f32f 88bd 2f46 e5bd
00000210: 6b6c bc3d ede8 02be ae2d 68bd 3915 293c
00000220: 7d93 55bd 84b1 fe3d 614a f33d 6cbd f2bc
00000230: 7229 2e3e 69b7 b43d e128 fdbc 0c66 25bd
00000240: de77 bdbd 88f7 29be ceeb 293d 04ad ffbd
00000250: 55c3 833c faa5 0cbe 2e77 2d3e 05e3 163d
00000260: 702a 383e ef9c a1bd f116 8dbd db4e 453a
00000270: e4db a63d cc55 52bc 5a03 00bd 987e aebb
00000280: a7a9 f83d 1500 1c3e e24b 0ebe 14f4 d43c
00000290: 9a58 a9bd dcec f43d 3d5c 0fbe 542a 863d
000002a0: 153f 1d3e 2067 c2bd 7386 353e 5a0e 993d
000002b0: 99b5 75bd f7cb 313e 689d d8bd 0077 d5bb
000002c0: ca4f ee3d ea2a 223d f2ca 3e3d eadd f43c
000002d0: 22b5 26bd b4d8 b5bc 0019 813c e7d9 8cbc
000002e0: 9a4e 303d 52dc d93d 5bfc 443e 7abe 033e
000002f0: 7c21 a2bd 6894 ba3c 7e27 a83d f689 5e3d
00000300: dcd0 f7bd cb92 cebd 6f5a 3ebe cbd0 babc
00000310: aaa1 8b3d 37ba e93d fe70 253d b051 0c3e
00000320: 62bf 0a3d 8cf4 61bd b45f e73d e640 adbc
00000330: 7234 173e 6dc5 c53d 0f4e 2e3e d9de 7fbb
00000340: 01da 3fbd 229c 3fbe 9ff1 063e 0785 813d
00000350: 718c c83d dbe6 fdbc 396d 2a3e e64d a2bd
00000360: 23e1 923d 71d0 133e 67f6 383e a0e2 cbbd
00000370: dee8 e9bc 088a 113e 643d 7cbd 0a37 41bd
00000380: 8b19 3e3e 7063 cabd e8e8 b73c d6bb 53bd
00000390: 5c4f 503b d29e 13be 7a81 f8bd 9b45 49bd
000003a0: 915a c7bd d025 883d 542f 1a3e fb6d 883d
000003b0: 74b1 1a3e f4dd 3c3d 673d 443e 92e4 b0bd
000003c0: a1be c63c af88 2cbd 6970 2ebb 3988 1e3c
000003d0: 7cdd 16be 405e 8bbd 5525 bdbd 699c f93c
000003e0: 540a 193e b754 e5bc 3d23 8f3d 0683 23be
000003f0: cbaa 64bd 5f32 5d3d b5d9 3ebd 23cf 4e3d

conv1.bias f4 [32]
-0.052449863 0.150938 -0.06277412 -0.015163801 0.013108249 0.11835422 0.032118637 -0.08401115
0.013262079 0.11693834 0.18898197 0.056780744 0.06586593 0.07312167 0.0010218949 0.04650838
0.15907107 -0.022376461 -0.042415578 -0.033195335 -0.09045365 0.016529031 0.09598756 0.15061004
0.17179649 -0.0998458 0.18433201 0.097650394 -0.010682083 0.14924091 -0.043870836 -0.10566598
00000000: abd5 56bd 7e8f 1a3e b88f 80bd 9771 78bc
00000010: fbc3 563c b363 f23d d58e 033d 0a0e acbd
00000020: 3149 593c 5e7d ef3d 7d84 413e ed92 683d
00000030: b7e4 863d d0c0 953d 1af1 853a 927f 3e3d
00000040: 87e3 223e d74e b7bc f5bb 2dbd d5f7 07bd
00000050: c33f b9bd e467 873c 2095 c43d 8539 1a3e
00000060: 6beb 2f3e f47b ccbd 88c1 3c3e eefc c73d
00000070: e703 2fbc 9cd2 183e e8b1 33bd 6867 d8bd

fc1.weight f4 [16, 288]
0.053134173 0.09459499 0.004464281 -0.0014791457 0.09487252 0.030647835 -0.0021073218 -0.021221427
0.026016971 -0.014521223 -0.012074729 -0.0084979525 0.05175829 0.03399449 0.06840589 0.06536036
-0.023405218 0.043666076 0.039485365 -0.02217395 0.00818891 0.02083046 0.0088013895 -0.048723496
0.006991 0.03798206 -0.03544861 0.049004886 0.000602812 0.07832928 0.076211326 0.06770839
0.07021518 0.014799093 0.07499205 0.06388354 0.08626052 -0.009823647 0.006427139 -0.0100608505
0.034713812 0.006593332 0.050517082 0.05187813 0.005588959 0.0076062935 -0.016438993 0.013499544
-0.045830127 -0.024368968 -0.064632736 0.023633344 -0.045076873 -0.018085891 0.08419502 0.015498771
0.0060551455 -0.01330817 -0.01032711 0.053889252 0.046468318 0.0030434763 0.05307984 0.093918175
0.075749084 0.045369875 0.0118280845 0.053132698 -0.00022851044 0.021539804 0.021356428 0.0076673105
-0.046916973 0.029756803 -0.037820917 -0.04060819 0.045716893 0.007230661 0.013849685 0.04682909
0.027943278 0.028697351 0.043378916 -0.0059284302 0.029723566 -0.022017356 -0.009474618 0.05645681
-0.0069880476 0.041866135 -0.018635288 -0.05207093 -0.038360488 0.03078229 0.0064228736 0.036619086
-0.035029884 0.03924563 0.0043300902 0.09266178 1.8642537e-05 -0.001707127 0.036105063 0.03366004
-0.018163303 -0.020960955 0.018883089 0.08608282 0.076805316 0.022651415 0.057287145 0.0015600274
0.03943572 0.044480544 0.06426489 0.04136369 0.068668336 0.021789365 0.046047438 0.042007614
0.0428021 -0.0032134866 -0.028257888 0.022825178 -0.02411529 0.055365086 -0.011665894 -0.0019034116
0.08688913 0.055383235 0.08694189 0.03266933 0.005482894 0.038046915 0.027776634 0.025635201
0.017128894 0.012135707 -0.048173632 -0.043209936 -0.0023935675 -0.051612906 0.052740343 0.057938248
0.0005819798 0.026780799 0.05754361 0.011269133 -0.0066801636 -0.022056118 0.06275431 0.056560732
0.052429665 0.038134847 -0.016044838 -0.023110354 -0.023350189 -0.00871234 -0.057280038 0.04484675
-0.04301848 -0.060279552 0.011161438 -0.06227394 -0.04783744 -0.0309574 -0.014697485 0.039169874
0.0067010163 -0.035278134 -0.059473626 0.0062391614 -0.032246526 0.019601882 -0.03528905 0.0062218476
0.02497457 -0.04977899 0.0063948906 -0.035150394 0.04520815 0.024180166 0.07578572 0.0073236097
0.041577052 0.03664677 0.08863696 0.07168739 0.02685811 -0.042566586 0.03869854 -0.06117491
-0.051838268 -0.0023744882 0.037509024 0.0028158312 -0.04046384 0.03537997 0.071126096 0.061939616
0.08698639 0.05849102 0.009392669 0.01714449 0.08671596 0.0094471155 -0.018422533 0.05009358
0.08293401 0.052172445 0.054540295 -0.003204507 0.081468076 0.038018808 0.041780055 0.05413209
-0.012603708 -0.02013787 0.04728801 0.034593903 0.043215774 0.04329112 0.075984664 -0.005256613
0.056772336 -0.0012554146 0.0366952 -0.064034656 -0.0114565855 -0.016806984 -0.027083328 -0.05117469
-0.0009966147 -0.015876861 -0.019876827 0.06543919 -0.0005842759 0.046948444 0.05391866 0.07635325
0.04520496 0.06797779 0.05722162 0.0709822 0.040789288 0.010264907 0.033169616 -0.017288037
-0.0012579932 0.0013095269 0.009723004 -0.0021855305 0.08585669 0.020531943 0.063458614 0.012107587
00000000: 38a3 593d 05bb c13d 1a49 923b e5df c1ba
00000010: 864c c23d 2b11 fb3c fe1a 0abb 8fd8 adbc
00000020: 8b21 d53c 6cea 6dbc 16d5 45bc ff3a 0bbc
00000030: 8000 543d ce3d 0b3d 6318 8c3d a7db 853d
00000040: 4dbc bfbc 33db 323d 68bb 213d 25a6 b5bc
00000050: c72a 063c a4a4 aa3c b433 103c 4a92 47bd
00000060: c214 e53b 1493 1b3d 9032 11bd 59b9 483d
00000070: 0706 1e3a 1a6b a03d af14 9c3d b2aa 8a3d
00000080: facc 8f3d e577 723c 6f95 993d 60d5 823d
00000090: 5ba9 b03d 5df3 20bc c09a d23b 44d6 24bc
000000a0: 1230 0e3d e10c d83b 00eb 4e3d 297e 543d
000000b0: 9623 b73b 373e f93b 11ab 86bc 312d 5d3c
000000c0: 5fb8 3bbd 6ea1 c7bc 2b5e 84bd b79a c13c
000000d0: 87a2 38bd dd28 94bc 706e ac3d 8fee 7d3c
000000e0: 3e6a c63b 830a 5abc 0a33 29bc faba 5c3d
000000f0: 9055 3e3d 0f75 473b 3f6a 593d 2c58 c03d
00000100: 5622 9b3d c3d5 393d 95ca 413c aca1 593d
00000110: 4e9c 6fb9 3e74 b03c adf3 ae3c 103e fb3b
00000120: 032c 40bd 8ac4 f33c 1bea 1abd c654 26bd
00000130: a341 3b3d 2eef ec3b cae9 623c dccf 3f3d
00000140: 4de9 e43c b516 eb3c 17ae 313d 4743 c2bb
00000150: d67e f33c be5d b4bc 6e3b 1bbc 423f 673d
00000160: fefb e4bb d37b 2b3d 08a9 98bc 5448 55bd
00000170: e31f 1dbd 242b fc3c f876 d23b e5fd 153d
00000180: 7f7b 0fbd 07c0 203d 6ee3 8d3b 76c5 bd3d
00000190: 8b62 9c37 adc1 dfba e7e2 133d 1cdf 093d
000001a0: 35cb 94bc 4fb6 abbc b5b0 9a3c 314c b03d
000001b0: 1b4c 9d3d 768f b93c eda5 6a3d d579 cc3a
000001c0: 5987 213d 3b31 363d 509d 833d f96c 293d
000001d0: fca1 8c3d 9c7f b23c 3d9c 3c3d 2d10 2c3d
000001e0: 4151 2f3d 5c99 52bb 167d e7bc defb ba3c
000001f0: 6e8d c5bc 80c6 623d 4e22 3fbc e57b f9ba
00000200: eef2 b13d 88d9 623d 970e b23d 46d0 053d
00000210: d9a9 b33b 15d7 1b3d d38b e33c ea00 d23c
00000220: e551 8c3c d8d4 463c b751 45bd e7fc 30bd
00000230: 66dd 1cbb 0e68 53bd 4206 583d a850 6d3d
00000240: 0190 183a 6863 db3c d9b2 6b3d 2ba2 383c
00000250: 46e5 dabb 08af b4bc 5585 803d 3aac 673d
00000260: 7dc0 563d 4933 1c3d 7770 83bc ed51 bdbc
00000270: e548 bfbc 34be 0ebc 799e 6abd 3ab1 373d
00000280: 2534 30bd b1e7 76bd 77de 363c f512 7fbd
00000290: 31f1 43bd 609a fdbc b8cd 70bc 9770 203d
000002a0: 3394 db3b ce7f 10bd 9e9a 73bd e171 cc3b
000002b0: ef14 04bd 2094 a03c 408b 10bd a4e0 cb3b
000002c0: 7897 cc3c 0ee5 4bbd 3b8c d13b dcf9 0fbd
000002d0: 2e2c 393d 7c15 c63c 8b35 9b3d e4fa ef3b
000002e0: b34c 2a3d ec1a 163d 4b87 b53d d7d0 923d
000002f0: 8a05 dc3c 4d5a 2ebd 5c82 1e3d 8b92 7abd
00000300: 5d54 54bd 4d9d 1bbb 10a3 193d cf89 383b
00000310: 69bd 25bd 96ea 103d 8faa 913d 65b4 7d3d
00000320: ec25 b23d 4894 6f3d b6e3 193c 9a72 8c3c
00000330: 2398 b13d 13c8 1a3c daea 96bc ed2e 4d3d
00000340: 4ed9 a93d c6b2 553d a565 5f3d b502 52bb
00000350: bcd8 a63d 9cb9 1b3d 9021 2b3d 9cb9 5d3d
00000360: c87f 4ebc 2df8 a4bc 13b1 413d 56b2 0d3d
00000370: 0603 313d 0852 313d d99d 9b3d aa3f acbb
00000380: 1c8a 683d b98c a4ba b54d 163d 9a24 83bd
00000390: 67b4 3bbc cdae 89bc dbdd ddbc 8d9c 51bd
000003a0: d7a0 82ba 3110 82bc bad4 a2bc fb04 863d
000003b0: 182a 19ba 034d 403d d0d9 5c3d 185f 9c3d
000003c0: d628 393d f137 8b3d 3861 6a3d 1e5f 913d
000003d0: ab12 273d 242e 283c dddc 073d a49f 8dbc
000003e0: 3fe3 a4ba 6ea4 ab3a 3c4d 1f3c 1e3b 0fbb
000003f0: a2d5 af3d 9b32 a83c 97f6 813d e75e 463c

fc1.bias f4 [16]
-0.017348206 -0.021638902 0.0885979 0.063080855 0.09084655 0.069892995 0.0073237885 0.04590638
0.01327171 -0.026883604 0.05879121 -0.041623756 0.024346707 0.011714378 0.085041374 0.0095937485
00000000: d31d 8ebc 1144 b1bc d172 b53d 8930 813d
00000010: c20d ba3d 0f24 8f3d 64fc ef3b 5408 3c3d
00000020: 9671 593c 013b dcbc 0dcf 703d ac7d 2abd
00000030: bf72 c73c aaed 3f3c 2c2a ae3d 192f 1d3c

fc2.weight f4 [1, 16]
0.17074405 -0.13294227 0.117396265 -0.11583231 0.05060252 0.118561 -0.24935097 -0.19096121
0.13095683 0.21126597 0.13085277 -0.18772784 0.10789551 -0.27602485 -0.109594844 0.23038246
00000000: 87d7 2e3e 0522 08be 746d f03d 7d39 edbd
00000010: 9744 4f3d 1cd0 f23d dc55 7fbe 568b 43be
00000020: 8c19 063e 1b56 583e 45fe 053e ba3b 40be
00000030: 52f8 dc3d 2153 8dbe 4373 e0bd 61e9 6b3e
