models/lstm_weights.pth (torch, 28305 bytes, 5 tensors)

lstm.weight_ih_l0 f4 [128, 15]
0	0xbd5e0c2c	-0.054210827
1	0x3e167f79	0.14697064
2	0xbdd466c3	-0.10371163
3	0xbd5cbc19	-0.05389032
4	0xbd93675a	-0.07197447
5	0x3e3dd5d6	0.18538603
6	0xbe08062e	-0.13283607
7	0xbde466f6	-0.11152451
8	0xbd9b4011	-0.07580579
9	0xbd67cd8a	-0.0565925
10	0xbceb3c4b	-0.028715273
11	0x3d9d5eb6	0.0768408
12	0xbd5c67a6	-0.053809784
13	0xbcaa90a3	-0.020820921
14	0x3e34fc34	0.17674333
15	0x3dfcfd82	0.1235304
16	0xbc41c70e	-0.0118272435
17	0x3e1c8730	0.15285945
18	0x3e1338a0	0.1437707
19	0xbc945013	-0.018104589
20	0x3d20f858	0.03929934
21	0xbd504b73	-0.050853204
22	0xbd7a3455	-0.061085064
23	0x3d453333	0.04814453
24	0xbd0a042b	-0.03369538
25	0x3dcd127c	0.10013291
26	0xbd85825c	-0.06519005
27	0xbe1145cd	-0.14186783
28	0xbe043ec4	-0.12914568
29	0x3dcdee30	0.10055196
30	0xbdb00da9	-0.085963555
31	0xbd0acb03	-0.033885013
32	0x3dd9fdc0	0.10644102
33	0xbdf8704e	-0.121307954
34	0xbe07a914	-0.13248092
35	0xbe33db42	-0.17564109
36	0xbd899192	-0.067172185
37	0x3ddeb09e	0.10873531
38	0x3d6245b1	0.055242244
39	0xbdb4a21a	-0.08819981
40	0x3d10299f	0.035195943
41	0xbe49d994	-0.19711906
42	0x3ce161c4	0.027512439
43	0xbda11fd2	-0.07867397
44	0xbe0b2cff	-0.13591383
45	0x3d5bebec	0.05369179
46	0xbdf4638b	-0.11933049
47	0xbd292332	-0.04129333
48	0xbcba22cd	-0.022721672
49	0x3e1b918b	0.15192239
50	0x3e3093a2	0.17243817
51	0xbd0957b7	-0.033530917
52	0x3e29e056	0.16589484
53	0xbe0df301	-0.1386223
54	0xbdf4af95	-0.11947552
55	0xbd4986d2	-0.04920084
56	0x3d3facc2	0.046795614
57	0x3da3bc39	0.07994885
58	0xbd952bca	-0.07283743
59	0x3e170d6f	0.14751218
60	0x3e68a8b5	0.22720607
61	0xbdc96766	-0.09834175
62	0x3d720e0e	0.059095435
63	0xbe39e60d	-0.18154164
64	0x3dfaf554	0.12253824
65	0x3e0cd97a	0.13754836
66	0xbdbedd35	-0.09319536
67	0x3de202a1	0.11035658
68	0x3c18c014	0.009323139
69	0x3df9b338	0.121923864
70	0xbdae204c	-0.08502254
71	0x3e1e1964	0.15439373
72	0xbd027a6d	-0.031855036
73	0x3db7b8b4	0.08970776
74	0x3a57f8c3	0.00082386675
75	0x3de95b74	0.113943964
76	0x3e039071	0.12848069
77	0xbd617cab	-0.055050533
78	0x3d2a8fe4	0.04164113
79	0xbd58090d	-0.052743006
80	0xbd958b21	-0.07301927
81	0xbbfd2b9a	-0.007726145
82	0x3e038d7f	0.12846945
83	0x3d514a33	0.051096153
84	0xbe3bdb85	-0.18345459
85	0xbae519c4	-0.0017478992
86	0x3da2e66e	0.07954107
87	0x3e086881	0.13321115
88	0xbd958db3	-0.073024176
89	0x3d410e6d	0.047132898
90	0x3da5c517	0.080942325
91	0xbceba1ff	-0.02876377
92	0xbd8de840	-0.06929064
93	0x3ce57456	0.028009575
94	0x3d73c67a	0.059515454
95	0xbb7782ab	-0.0037767093
96	0xbd9b7d2a	-0.075922325
97	0x3db73806	0.089462325
98	0x3e598d38	0.21245277
99	0x3de4e0d2	0.111756936
100	0xbd98cc80	-0.0746088
101	0xbd973f43	-0.07385113
102	0x3dbb58c7	0.09147792
103	0xbcbaea5e	-0.022816833
104	0x3d99976a	0.07499583
105	0xbdbc134a	-0.091833666
106	0x3e0196b8	0.12655151
107	0xbb786176	-0.0037899888
108	0xbe30f141	-0.17279531
109	0xbe0121a9	-0.12610497
110	0x3e3a0509	0.18165983
111	0x3e2f9c13	0.17149381
112	0x3e499c96	0.19688639
113	0x3e209204	0.156807
114	0xbc264dea	-0.010150412
115	0xbd885aa8	-0.06657916
116	0xbdba1e5e	-0.09087823
117	0x3d5e32f9	0.05424783
118	0x3d69a476	0.057041608
119	0x3da43aae	0.08019005
120	0x3cc91c4b	0.024549624
121	0x3e48a714	0.19594985
122	0x3c868281	0.016419651
123	0xbe19b94e	-0.15012094
124	0xbdaff1fb	-0.08591076
125	0xbdcbdb1d	-0.09953902
126	0xbd716d5b	-0.05894218
127	0xbd2348e9	-0.039864454
128	0xbda203ba	-0.07910867
129	0xbd5334c8	-0.051564008
130	0x3d4e134f	0.050311383
131	0xbd9a9f5e	-0.07549928
132	0x3de4c783	0.11170866
133	0x3e49b5d3	0.19698267
134	0x3d254eab	0.040358227
135	0x3decdc4f	0.11565458
136	0xbe16f8df	-0.14743374
137	0xbc11f159	-0.008907639
138	0xbdeaf19a	-0.11471863
139	0xbdb44088	-0.08801371
140	0xbd8b4452	-0.068001404
141	0xbdba5532	-0.09098281
142	0x3c349ad4	0.011023242
143	0xbdb2742c	-0.08713564
144	0x3e4d9d0b	0.20079438
145	0x3d3f3504	0.04668142
146	0xbcd9c0a6	-0.02658112
147	0xbe449ed9	-0.1920122
148	0xbd94b398	-0.07260817
149	0xbd17ea24	-0.03708853
150	0xbd29754e	-0.041371636
151	0xbde6bb7e	-0.1126623
152	0x3cec2942	0.028828267
153	0xbe370925	-0.17874582
154	0xbe167b26	-0.14695415
155	0x3e1677b5	0.14694102
156	0xbdd21c38	-0.102592885
157	0xbcd10c59	-0.025518583
158	0x3e09532d	0.13410635
159	0xbe48dad4	-0.19614726
160	0x3e4b46f8	0.19851291
161	0x3d94bb51	0.0726229
162	0xbdb3e92d	-0.08784709
163	0xbe0a983d	-0.13534637
164	0x3e252011	0.16125514
165	0xbd9f7195	-0.07785336
166	0x3e003083	0.12518506
167	0x3b0d5d54	0.002157052
168	0xbdb142a3	-0.08655288
169	0x3e12f972	0.14352968
170	0xbc3929cd	-0.01130147
171	0xbe30fbeb	-0.17283599
172	0xbd518013	-0.05114753
173	0x3df03ceb	0.11730369
174	0xbe2f0e12	-0.17095211
175	0x3dac7fcf	0.08422815
176	0xbe1f8819	-0.15579261
177	0x3e0c842e	0.13722298
178	0x3e01cff4	0.12676984
179	0x3cfbdebf	0.030745862
180	0x3c5f8974	0.013643611
181	0xbdd5c7c7	-0.10438495
182	0x3db6d101	0.08926583
183	0x3b46c264	0.0030328268
184	0xbdd438c3	-0.10362389
185	0x3da8b9be	0.082385525
186	0xbd8a62e8	-0.06757146
187	0x3e119a39	0.14218988
188	0xbde34c59	-0.110985465
189	0x3dc71775	0.09721271
190	0xbe09c155	-0.13452657
191	0xbe064eef	-0.13116048
192	0x3c43b740	0.011945546
193	0xbe5b5c76	-0.2142199
194	0xbdef897d	-0.11696146
195	0xbcd9d87e	-0.02659249
196	0xbddb24b5	-0.10700361
197	0xbd9752af	-0.073888175
198	0x3e1b33de	0.15156505
199	0xbcbdf6ae	-0.023188915
200	0x3e231c69	0.15928806
201	0x3e02b909	0.12765898
202	0xbe33ec26	-0.17570552
203	0xbcd68476	-0.02618621
204	0x3dd393d3	0.103309296
205	0xbd035d19	-0.032071207
206	0xbe39e495	-0.18153603
207	0xbe40bfe2	-0.18823197
208	0xbd524d67	-0.051343348
209	0xbd265ee8	-0.040617853
210	0x3e24cf75	0.16094764
211	0x3c75060f	0.014955058
212	0xbd3b87bc	-0.045783743
213	0xbe1b13dc	-0.15144295
214	0xbdd914bb	-0.10599657
215	0x3e45bda7	0.19310628
216	0xbdfabc22	-0.12242915
217	0x3ced0148	0.028931275
218	0x3d77b376	0.06047388
219	0xbd3fedf4	-0.04685779
220	0x3d879cdc	0.066217154
221	0x3db10d50	0.08645117
222	0x3e0753db	0.13215582
223	0xbdb0b768	-0.08628732
224	0x3e2a88fd	0.1665382
225	0xbd3de581	-0.04636145
226	0xbe3358d1	-0.1751435
227	0xbd609d5e	-0.054837577
228	0x3e0487fb	0.12942497
229	0x3dd3de60	0.10345149
230	0x3e4b9d58	0.1988424
231	0x3d9f0573	0.07764711
232	0xbde8112e	-0.11331402
233	0xbd1b9019	-0.03797922
234	0x3ddf850a	0.10914047
235	0xbe443380	-0.1916027
236	0x3e084349	0.13306917
237	0xbcff333d	-0.031152362
238	0x3e0e2bdb	0.13883917
239	0x3dc4633b	0.09589239
240	0x3e29574a	0.16537204
241	0xbd484ca1	-0.048901204
242	0xbd417eda	-0.047240116
243	0xbdd41ffd	-0.10357664
244	0x3e223c44	0.15843302
245	0x3de4513d	0.111483075
246	0x3cfc3103	0.03078509
247	0xbd94f07f	-0.072724335
248	0xbd77147a	-0.060322262
249	0x3d39e12a	0.04538075
250	0x3da74f01	0.08169366
251	0xbe138431	-0.14405896
252	0x3e18c18d	0.14917584
253	0x3e0724c0	0.13197613
254	0xbe1ab3c7	-0.15107642
255	0x3d897949	0.067125864

lstm.weight_hh_l0 f4 [128, 32]
0	0xbd9c034e	-0.07617818
1	0x3e2477c1	0.16061307
2	0xbe61907d	-0.22027774
3	0x3d5dfcd3	0.05419619
4	0x3cb3aafc	0.021932118
5	0x3e7a01ac	0.244147
6	0x3db97ba4	0.09056786
7	0xbdf5e497	-0.12006491
8	0xbd3d32ca	-0.046191014
9	0x3e4b6fb2	0.19866827
10	0x3c265430	0.010151908
11	0xbce2d457	-0.027689142
12	0xbe053e6d	-0.13012095
13	0x3cc7b6bf	0.024379132
14	0xbcaddec3	-0.021224385
15	0xbde7d671	-0.11320198
16	0x3bc944ed	0.00614225
17	0x3d001256	0.031267487
18	0x3c9343c7	0.017976655
19	0xbca01eda	-0.019545961
20	0xbc46fb53	-0.012144881
21	0xbd9f0c62	-0.07766034
22	0x3e85ecdc	0.26157272
23	0xbe389c84	-0.18028456
24	0x3e3dd20f	0.18537162
25	0xbc8cbabd	-0.017178888
26	0xbe33b1f9	-0.1754836
27	0x3d264ba8	0.040599495
28	0x3c5342e5	0.012894367
29	0xbdd15584	-0.10221389
30	0xbdbdcd5a	-0.09267683
31	0xbda102f5	-0.07861892
32	0x3d84353d	0.06455467
33	0xbddbebde	-0.107383475
34	0xbe16da8a	-0.14731804
35	0x3d549e0d	0.05190854
36	0x3e90616f	0.28199336
37	0x3e822f69	0.25426796
38	0xbe15bf6d	-0.14623804
39	0x3d8c0683	0.068371795
40	0x3dc1ae9a	0.09457131
41	0xbd51c05b	-0.051208835
42	0xbdee5f9b	-0.11639329
43	0x3bf6c98c	0.0075313505
44	0x3dbf7537	0.09348529
45	0xbda1eb48	-0.079062045
46	0x3dd6e03d	0.10491989
47	0x3d04c020	0.032409787
48	0xbe31906e	-0.17340252
49	0xbd85282e	-0.06501804
50	0x3e3af23f	0.18256472
51	0xbe773260	-0.2414031
52	0x3cc8b3af	0.024499742
53	0x3d6fad2a	0.05851475
54	0x3d48b590	0.049001276
55	0xbe3eb446	-0.18623456
56	0x3e11a3e1	0.14222671
57	0xbe38de3c	-0.18053526
58	0xbd44fca6	-0.048092507
59	0x3e781aa2	0.2422891
60	0xbdf8153a	-0.12113424
61	0x3e41dc46	0.18931684
62	0x3de4045f	0.11133646
63	0xbe052160	-0.13001013
64	0x3cf7c940	0.03024733
65	0xbe105078	-0.14093196
66	0x3c03db48	0.008047886
67	0xbd1a6a7b	-0.037699204
68	0xbd2c1301	-0.04201031
69	0xbb02c1a5	-0.0019951847
70	0x3e2f7dcf	0.17137836
71	0xbe0bf879	-0.13669004
72	0xbe292106	-0.16516504
73	0xbc76d817	-0.015066168
74	0x3deac99c	0.11464235
75	0xbd8e0511	-0.0693456
76	0xbded2134	-0.115785986
77	0xbdbfd2fa	-0.093664125
78	0xbc0d15e2	-0.008611174
79	0x3d490fd4	0.04908736
80	0x3d9e1b5a	0.07720061
81	0x3c0402b4	0.008057285
82	0x3dc1d3a4	0.09464195
83	0xbcedec8a	-0.029043455
84	0xbcb24cca	-0.021765132
85	0xbdfec001	-0.124389656
86	0x3dc1c54a	0.09461458
87	0x3e19e2bf	0.15027903
88	0xbe3f1c0d	-0.18663044
89	0x3df2e2e6	0.11859684
90	0xbc976178	-0.018479094
91	0xbd8257b1	-0.06364382
92	0xbe126fe3	-0.14300494
93	0x3ba97435	0.0051713237
94	0xbd70e018	-0.058807462
95	0x3e018efe	0.12652203
96	0xbd624cc8	-0.055249006
97	0x3e06235d	0.13099428
98	0x3b885a26	0.004161137
99	0xbd9d1c3a	-0.076713994
100	0x3e89c0c2	0.26904875
101	0x3de0c4c4	0.1097503
102	0x3d264f72	0.04060311
103	0xbde7051c	-0.112802714
104	0xbe13e4ce	-0.14442751
105	0x3de449d3	0.11146893
106	0x3e10c975	0.1413935
107	0xbb9e87e1	-0.0048379754
108	0x3d11b341	0.03557134
109	0x3e5829db	0.21109717
110	0xbd8b699f	-0.06807255
111	0xbd263305	-0.040576
112	0x3d9d4c38	0.07680553
113	0xbd8c8f7e	-0.068633065
114	0x3c6c6d74	0.0144303925
115	0xbb597118	-0.0033178981
116	0x3dd4a4cc	0.10382995
117	0x3e2fae28	0.17156279
118	0x3e1db631	0.15401532
119	0xbe0ee010	-0.1395266
120	0x3d3d6577	0.046239343
121	0xbe4f24d2	-0.2022889
122	0xbe149324	-0.14509255
123	0x3e1e9971	0.15488221
124	0x3d4d6931	0.050149146
125	0xbd1ee26c	-0.03879015
126	0x3e3b9ca6	0.18321475
127	0xbdbcec65	-0.09224776
128	0x3da2ab51	0.07942832
129	0x3e2b7569	0.16744007
130	0x3dabf2b4	0.08395901
131	0xbc966bf5	-0.018362025
132	0x3e16543b	0.14680569
133	0x3e1acfd0	0.15118337
134	0xbde1aceb	-0.110193096
135	0xbd877156	-0.06613414
136	0xbdd63547	-0.104593806
137	0x3da896fe	0.082319245
138	0x3e1a726d	0.15082712
139	0x3d0dd7c7	0.03462961
140	0x3e2a3feb	0.16625945
141	0x3dc5abf2	0.096519366
142	0xbdd36926	-0.1032279
143	0x3dca2689	0.09870631
144	0xbda04d26	-0.07827215
145	0xbdfe9106	-0.12430005
146	0xbd62d4f1	-0.055378858
147	0xbe53ab11	-0.20670725
148	0xbd0e4d75	-0.034741838
149	0xbd48ac9c	-0.048992738
150	0x3df77d38	0.120844305
151	0x3d0ff6df	0.035147544
152	0xbbd1b998	-0.0064002983
153	0x3bb00112	0.0053712213
154	0xbe79d955	-0.24399312
155	0xbd99004e	-0.07470761
156	0xbd524506	-0.051335357
157	0xbdbe36df	-0.092878096
158	0x3db78ae3	0.089620374
159	0xbd25b2bd	-0.04045366
160	0xbdc4cb11	-0.09609044
161	0x3d3e744a	0.04649762
162	0xbe33a45f	-0.17543171
163	0xbe238ce6	-0.15971717
164	0xbd08059b	-0.03320847
165	0x3dfcc6ab	0.123425804
166	0xbe1d022d	-0.15332861
167	0x3d772c77	0.06034514
168	0x3de5b43c	0.112160176
169	0xbca7d5fd	-0.02048778
170	0x3c3107ae	0.010805054
171	0x3d01304c	0.0315402
172	0xbd947989	-0.072497435
173	0xbd63de2c	-0.0556318
174	0x3d3955c5	0.04524781
175	0xbdec13e9	-0.11527235
176	0xbd841d9b	-0.06450959
177	0xbe068c4d	-0.13139458
178	0xbd5bcd4c	-0.053662583
179	0xbb9f32c0	-0.004858345
180	0xbcf42520	-0.029802859
181	0x3dff1d9c	0.124568194
182	0x3daf2291	0.08551515
183	0xbe15c721	-0.14626743
184	0x3e378347	0.17921172
185	0xbe4c2c0d	-0.19938679
186	0xbda45425	-0.08023862
187	0xbdbaf8d9	-0.09129495
188	0x3dfe868b	0.12428006
189	0x3e2e047f	0.16993903
190	0xbd867d43	-0.065668605
191	0x3d9b68ad	0.07588325
192	0xbdd38417	-0.103279285
193	0x3d4d1b15	0.050074656
194	0x3d36904f	0.044571217
195	0xbe0ad4a8	-0.13557684
196	0x3dc5bc2d	0.09655032
197	0x3d0ebc77	0.034847703
198	0x3e21f0c1	0.15814497
199	0x3ddd3d3c	0.10802695
200	0x3c82f59e	0.01598626
201	0x3bdbdc70	0.006709628
202	0x3e61cd5e	0.22050998
203	0x3da2189d	0.07914851
204	0x3c88a04f	0.016678004
205	0x3d065884	0.03279926
206	0x3d411c9a	0.047146417
207	0xbe051dc4	-0.12999636
208	0x3dc5bc4d	0.09655056
209	0xbd6ac197	-0.057313528
210	0x3e013538	0.12617958
211	0xbe1127ed	-0.14175387
212	0xbcc118be	-0.023571368
213	0x3dc51f4d	0.09625111
214	0x3e7294cb	0.23689573
215	0xbe5f03f4	-0.21778852
216	0xbd672ba4	-0.056438103
217	0xbe53a0f4	-0.20666867
218	0xbddd71ff	-0.10812759
219	0x3e3c7eaa	0.18407694
220	0x3e42428a	0.18970695
221	0xbd1322e0	-0.03592193
222	0x3cf7c1c7	0.030243767
223	0xbe4d4b66	-0.20048293
224	0xbd56a6fd	-0.052405346
225	0xbe483a63	-0.19553523
226	0xbc65ba5b	-0.014021481
227	0xbd34fce3	-0.044186484
228	0x3dc6a8ad	0.09700141
229	0x3e7c0c52	0.24614075
230	0xbd87eec7	-0.0663734
231	0xbda21bac	-0.07915434
232	0x3d1ff58a	0.039052524
233	0xbc9ad24f	-0.018899111
234	0xbe057a44	-0.13034922
235	0xbd89e94e	-0.067339525
236	0x3d754c1f	0.059887048
237	0x3e3cc42c	0.18434209
238	0x3d22a310	0.03970629
239	0xbc18f994	-0.009336848
240	0xbe03cb3a	-0.12870494
241	0x3d7be501	0.061497692
242	0x3dea9559	0.11454267
243	0xbe026895	-0.12735207
244	0x3e142974	0.14468938
245	0x3d5e4e3b	0.054273825
246	0x3e0c7081	0.13714792
247	0xbd943fd0	-0.07238734
248	0x3c97db50	0.018537194
249	0xbe693dbf	-0.2277746
250	0xbe253d74	-0.16136724
251	0x3deac3ee	0.11463152
252	0x3e3c8c88	0.18412983
253	0x3e31e2c7	0.17371665
254	0x3e0c31b3	0.13690834
255	0xbe62a8ca	-0.221347

lstm.bias_ih_l0 f4 [128]
0	0x3d5c8ca4	0.053845063
1	0x3e403fb9	0.18774308
2	0x3d9d750b	0.0768834
3	0x3d02817e	0.031861775
4	0x3d65fc15	0.056148607
5	0xbd97e9e5	-0.07417659
6	0x3e4e7878	0.20163143
7	0x3de5dec9	0.112241335
8	0x3cb8a881	0.022541286
9	0xbcc156df	-0.023600994
10	0xbdbee835	-0.09321634
11	0x3e1571d0	0.14594197
12	0xbcfe00e6	-0.031006288
13	0x3e520f5c	0.20513672
14	0xbe1c803f	-0.15283297
15	0x3d9d7e4c	0.07690105
16	0xbb95af1d	-0.0045679943
17	0x3e1f7269	0.15570988
18	0x3e751191	0.23932482
19	0xbbcb0865	-0.006196069
20	0x3d60d98e	0.054894976
21	0x3cd5198f	0.026013164
22	0x3dbf7e47	0.09350257
23	0xbd2a1878	-0.04152724
24	0x3cdfce4e	0.027320053
25	0x3e419a03	0.18906407
26	0x3e5004f2	0.20314386
27	0xbd9cba64	-0.07652739
28	0x3d345a35	0.04403134
29	0x3e4b1ce8	0.19835246
30	0xbd3f6604	-0.04672815
31	0x3e2bda64	0.16782528
32	0x3e4675a8	0.1938082
33	0x3e0cdf07	0.13756953
34	0x3e105534	0.14095002
35	0x3d9fd5df	0.078044645
36	0x3e08a55f	0.13344334
37	0x3d88aacb	0.06673201
38	0x3e298c96	0.16557536
39	0x3e73f281	0.23822977
40	0x3e19d052	0.15020874
41	0x3e6dc623	0.23220114
42	0x3d6d1756	0.057883583
43	0x3c8aa76f	0.016925542
44	0x3e4cd366	0.20002517
45	0x3dad7768	0.084700406
46	0x3e346ae3	0.17618899
47	0x3d458938	0.048226565
48	0x3e011790	0.12606645
49	0xbd8b2f55	-0.06796137
50	0x3e5afc3d	0.21385284
51	0x3cb41479	0.021982418
52	0x3c9ac674	0.018893458
53	0x3e6f41f0	0.23364997
54	0x3dfac872	0.12245263
55	0x3e7d526e	0.24738476
56	0x3e382e87	0.17986499
57	0xbd3031df	-0.04301631
58	0x3e30398e	0.17209455
59	0xbc721725	-0.014776026
60	0x3e754b7b	0.23954575
61	0x3dfcb9a8	0.123400986
62	0x3bcee3d7	0.0063137817
63	0xbd9132fb	-0.07089802
64	0x3dce3067	0.10067826
65	0xbcbb77af	-0.022884218
66	0x3c8e508a	0.017372388
67	0xbdb373d9	-0.087623306
68	0x3debc9fb	0.11513134
69	0x3e512ff8	0.20428455
70	0xbe0e8aea	-0.13920179
71	0xbdd5abb3	-0.1043314
72	0xbdabd0e4	-0.08389452
73	0xbc88d0be	-0.016701099
74	0xbd8a8f02	-0.06765558
75	0xbe30179f	-0.1719651
76	0xbe5cd642	-0.21566108
77	0x3e2e3a89	0.17014517
78	0x3e61fa1f	0.2206807
79	0xbd5b65c8	-0.053563863
80	0xbd896b74	-0.06709948
81	0x3c71e3f1	0.014763818
82	0x3e15f265	0.14643247
83	0xbe4587cb	-0.19290082
84	0x3e241c71	0.16026475
85	0xbd17dc79	-0.037075493
86	0xbd07baf6	-0.033137284
87	0xbe2efb23	-0.17087989
88	0xbd65010a	-0.055909194
89	0xbd83316b	-0.0640591
90	0x3c75bed3	0.014999109
91	0x3ddb7287	0.10715204
92	0x3d81ee1c	0.06344244
93	0x3d908ad8	0.07057732
94	0x3dd5d742	0.10441448
95	0xbd97c564	-0.07410696
96	0x3e8e314e	0.27771991
97	0x3d5739e0	0.05254543
98	0xbd24a813	-0.04019935
99	0x3dba9254	0.09109941
100	0x3e39e00a	0.1815187
101	0x3d2f4f6f	0.042800363
102	0x3e3b5479	0.18293943
103	0x3d937752	0.07200493
104	0x3e61aafb	0.2203788
105	0x3d56943f	0.052387472
106	0x3c851b98	0.01624851
107	0x3e804e3d	0.2505969
108	0x3e020fb1	0.12701298
109	0x3db14baa	0.0865701
110	0x3e074511	0.1320994
111	0x3b8ab90d	0.0042334856
112	0x3ca271c1	0.019829633
113	0x3e70d0c3	0.23517136
114	0x3daf32b3	0.08554592
115	0x3e4c2b2e	0.19938347
116	0x3d91670b	0.07099732
117	0x3dbf4970	0.09340179
118	0x3e4d7767	0.2006508
119	0xbceb293f	-0.028706191
120	0x3da7d0b9	0.081941076
121	0x3d45f745	0.048331518
122	0x3e7877ca	0.24264446
123	0x3d1debeb	0.038555067
124	0x3e6d56b7	0.2317761
125	0x3dd36cab	0.10323461
126	0x3e398095	0.18115456
127	0x3d112a7c	0.035440907

lstm.bias_hh_l0 f4 [128]
0	0x3e4c77bd	0.19967552
1	0x3e18d8ff	0.14926527
2	0xbd403234	-0.046922877
3	0xbcc4bb75	-0.024015168
4	0x3e0879aa	0.13327661
5	0x3dc9c3b6	0.09851782
6	0x3dff82b3	0.12476101
7	0x3e05f6e7	0.13082467
8	0x3d84ea46	0.064899966
9	0x3e3721e7	0.17884026
10	0x3e45b4d0	0.19307256
11	0xbdc3970d	-0.09550295
12	0xbdec83c4	-0.1154857
13	0xbc9fbc99	-0.01949911
14	0xbdb50f9d	-0.088408686
15	0x3e2581ce	0.16162798
16	0x3d823ff6	0.06359856
17	0xbcf70ec1	-0.030158402
18	0xbd2347ff	-0.039863583
19	0xbc09d97b	-0.008413668
20	0x3d173343	0.03691412
21	0x3e78395d	0.24240632
22	0x3c90b887	0.017666114
23	0x3e653d02	0.22386554
24	0xbc964a77	-0.018346054
25	0x3d82de53	0.06390061
26	0xbd86560e	-0.065593824
27	0xbb0b8e95	-0.0021294702
28	0xbc4b5722	-0.012410911
29	0x3e82bbef	0.25534007
30	0xbbedbefd	-0.0072554336
31	0x3df00083	0.117188476
32	0x3ded910f	0.11599933
33	0xbd417e81	-0.047239784
34	0xbe136a00	-0.14395905
35	0x3de921f2	0.11383428
36	0x3e21581b	0.15756266
37	0x3e87aa88	0.26497293
38	0x3e390e92	0.18071964
39	0x3e1225c1	0.14272214
40	0x3e79f5dd	0.24410196
41	0xbd8adb44	-0.06780103
42	0xbd455177	-0.048173394
43	0x3d78bc3b	0.060726386
44	0x3e1aebf7	0.15129076
45	0x3de489ab	0.111590706
46	0x3e322a18	0.1739887
47	0xbd82f437	-0.063942365
48	0xbbc8ad75	-0.0061241933
49	0xbd8da28e	-0.069157705
50	0x3d5c01c1	0.05371261
51	0xbcf85ccc	-0.030317686
52	0x3e3b49c4	0.18289858
53	0xbd31f94a	-0.04345063
54	0x3cf38d1b	0.02973037
55	0x3e67790e	0.22604772
56	0xbce943f9	-0.028474795
57	0x3db9624a	0.0905195
58	0x3d9386a7	0.07203417
59	0xbd098717	-0.033576097
60	0x3ddeb60f	0.10874569
61	0xbcb2ce97	-0.021827025
62	0x3d5986db	0.053107124
63	0x3e8c7b4c	0.27437818
64	0xbe2ece1f	-0.17070816
65	0xbe03204a	-0.12805286
66	0xbbab9c1c	-0.0052371155
67	0x3c9f8e2f	0.019476978
68	0x3d86bdcb	0.06579169
69	0x3e693cb4	0.22777063
70	0x3d9a538f	0.07535469
71	0xbdde947d	-0.10868166
72	0x3c268921	0.01016453
73	0x3dfe0037	0.12402385
74	0x3e52f632	0.20601729
75	0x3e214d72	0.157522
76	0xbdbc3dde	-0.09191488
77	0x3cf30e31	0.029669853
78	0x3de0ce65	0.10976867
79	0x3d3754c6	0.04475858
80	0xbdee553d	-0.11637352
81	0xbddc3d8a	-0.10753925
82	0x3dca3aa1	0.09874464
83	0x3d630398	0.05542335
84	0x3e1f099c	0.1553101
85	0x3e071404	0.13191229
86	0x3c9ed730	0.019389719
87	0xbd59d758	-0.053183883
88	0x3d0363ce	0.032077603
89	0xbd022a16	-0.031778418
90	0xbdef3325	-0.11679677
91	0xbcf38454	-0.029726185
92	0x3d70bec8	0.058775693
93	0x3e09d389	0.134596
94	0xbc878c18	-0.016546294
95	0x3c669dc5	0.014075701
96	0x3e2ad519	0.16682853
97	0x3e93e686	0.28886813
98	0x3cafaa34	0.021443464
99	0x3e989e05	0.2980806
100	0xbd9966ff	-0.07490348
101	0x3cf59bfc	0.029981606
102	0x3ddc8bc8	0.10768849
103	0x3e18c8a4	0.14920288
104	0x3d429c01	0.04751206
105	0x3d8d536e	0.069006786
106	0x3e33d294	0.17560798
107	0x3e0dd909	0.13852324
108	0x3dd007d2	0.101577416
109	0x3d6fdcfc	0.058560356
110	0x3e6a6c3d	0.22892852
111	0x3e0eb92d	0.13937826
112	0x3e8f3347	0.2796881
113	0x3ddc6da8	0.10763103
114	0x3ea6cd75	0.32578626
115	0x3cfdcfc1	0.030982854
116	0x3dc05274	0.09390727
117	0x3b4d9200	0.003136754
118	0x3d46709b	0.048447233
119	0x3b2de48a	0.0026533925
120	0x3e115688	0.14193165
121	0x3ea5870c	0.32329595
122	0x3e321644	0.17391306
123	0x3e395942	0.18100455
124	0x3d65a06d	0.056061197
125	0x3d673faa	0.0564572
126	0x3dd44f47	0.103666835
127	0x3d87ada2	0.06624915

fc.weight f4 [1, 32]
0	0x3e053c36	0.1301125
1	0x3e91862c	0.28422678
2	0x3e87a36d	0.2649187
3	0xbe46cfc3	-0.19415192
4	0x3e7667fc	0.24063104
5	0x3e23b977	0.15988718
6	0xbe8e92aa	-0.2784627
7	0x3e8a221c	0.26979148
8	0x3e0d5492	0.13801792
9	0xbe8374dd	-0.25675097
10	0x3e894ffb	0.26818833
11	0x3e5570d7	0.20843826
12	0x3d35d73f	0.044394728
13	0xbe861221	-0.26185706
14	0x3e39e366	0.18153152
15	0xbe7e19cf	-0.24814533
16	0x3e2a26b0	0.1661632
17	0x3e2204ee	0.15822193
18	0xbe22ba4a	-0.15891376
19	0xbe88dff1	-0.26733354
20	0x3e07e8dc	0.13272423
21	0x3e3fd400	0.18733215
22	0xbdcff432	-0.101539984
23	0xbe883e98	-0.26610255
24	0x3e96a4f9	0.2942274
25	0x3ea0a74c	0.31377637
26	0xbe9e9b86	-0.3097803
27	0xbe882f0c	-0.26598394
28	0xbe91850c	-0.2842182
29	0xbea4ce5c	-0.3218869
30	0xbe9f8321	-0.3115473
31	0xbe7ee277	-0.24891077
