models/transformer_weights.pth (torch, 565764 bytes, 16 tensors)

embedding.weight f4 [32, 15]
0	0xbe887f6d	-0.26659718
1	0x3de0f2b1	0.1098379
2	0xbe1daf7d	-0.15398975
3	0xbc8bc0db	-0.017059734
4	0xbdcd2cda	-0.100183204
5	0x3c8c87e9	0.01715465
6	0xbe5eda62	-0.21762994
7	0xbd7fc253	-0.06244118
8	0xbcc37031	-0.023857208
9	0x3e7d43c3	0.2473288
10	0xbde5c831	-0.11219824
11	0xbdf24233	-0.11829033
12	0x3cb329cd	0.021870518
13	0x3dc44e13	0.09585204
14	0x3d5d680c	0.054054305
15	0xbe8a73fd	-0.27041617
16	0xbe3a096e	-0.1816766
17	0x3d93f286	0.07223992
18	0xbe36fd4f	-0.17870067
19	0x3c7a800e	0.01528932
20	0x3e30ad5f	0.17253636
21	0xbe75f28c	-0.24018306
22	0xbd3008c1	-0.0429771
23	0xbe15a3fe	-0.1461334
24	0x3e2ba790	0.16763139
25	0x3cbd8b6e	0.023137774
26	0x3e6d61d1	0.23181845
27	0x3d5d50e1	0.05403221
28	0xbe751e8a	-0.23937431
29	0x3e268836	0.16262898
30	0xbe637bcd	-0.22215195
31	0xbdc16bd3	-0.09444394
32	0x3ddbe3ae	0.10736786
33	0xbda0c68e	-0.07850371
34	0xbe006ea8	-0.12542212
35	0x3e4d4b89	0.20048346
36	0x3e020d14	0.12700301
37	0x3e2abff5	0.16674788
38	0xbe0a6297	-0.13514172
39	0x3ba17d05	0.0049282336
40	0x3de8627f	0.11346912
41	0xbe0c0021	-0.13671924
42	0xbd994e8e	-0.07485686
43	0xbd0e3dbb	-0.03472684
44	0xbe706048	-0.23474228
45	0xbe3029bd	-0.17203422
46	0x3df0ae1a	0.11751957
47	0xbce3bbe6	-0.027799558
48	0x3e40b3cd	0.18818589
49	0xbd763af0	-0.0601148
50	0xbe51e327	-0.20496808
51	0xbe2b93a1	-0.16755535
52	0xbe5ae8bf	-0.21377848
53	0x3e6931d9	0.22772922
54	0xbe26ec7d	-0.1630115
55	0x3e3cafd2	0.18426445
56	0xbe0dc9bf	-0.13846491
57	0x3da81aaf	0.082082145
58	0xbdcbc446	-0.099495456
59	0x3e20e1ed	0.15711184
60	0xbd8f96ef	-0.0701121
61	0x3e00abed	0.12565584
62	0xbe1ec616	-0.15505251
63	0x3de2ba19	0.110706516
64	0x3c9f7a39	0.01946746
65	0xbdf9cbe8	-0.12197095
66	0x3e52070a	0.20510498
67	0x3d9a2ee7	0.07528477
68	0x3e80163a	0.25016958
69	0x3901a220	0.00012362795
70	0x3c7648b4	0.015031982
71	0x3d96e1a9	0.0736726
72	0xbe1cab5e	-0.15299746
73	0xbc374353	-0.011185485
74	0xbd17a8d4	-0.03702624
75	0xbe867f10	-0.26268816
76	0xbdef50c2	-0.11685325
77	0x3dd35bc3	0.103202365
78	0x3e8a1379	0.2696798
79	0x3bdbe5ea	0.0067107575
80	0xbbab83b0	-0.005234204
81	0x3db10305	0.08643154
82	0xbdc01198	-0.09378356
83	0x3baadc9d	0.0052142874
84	0xbe19b58c	-0.15010661
85	0xbdbe40a8	-0.09289676
86	0x3dcab987	0.09898668
87	0xbe055e2b	-0.13024203
88	0xbd6d4fa1	-0.05793727
89	0xbe743c77	-0.2385119
90	0xbda5fb7f	-0.0810461
91	0x3df1172d	0.117719986
92	0x3db49d97	0.088191204
93	0x3dc624cd	0.09674988
94	0xbd9e5069	-0.07730181
95	0xbdea1cf5	-0.11431304
96	0x3e2d1980	0.16904259
97	0x3ce21f84	0.027602918
98	0xbe2a3366	-0.1662117
99	0xbd509492	-0.050922938
100	0xbe836b0f	-0.25667617
101	0xbd3b8b52	-0.045787163
102	0xbe713677	-0.23555933
103	0x3e45a97e	0.19302937
104	0xbc5f89d1	-0.013643698
105	0x3dc3ac3e	0.09554337
106	0x3dc6a7e2	0.0969999
107	0x3d03e38b	0.032199424
108	0x3e02f2a7	0.12787877
109	0x3e4a3398	0.19746244
110	0x3d19cad5	0.03754695
111	0x3e8a0915	0.26960054
112	0x3e46c4c8	0.19411004
113	0x3e2c5800	0.16830444
114	0xbdbefcab	-0.09325536
115	0x3e28118f	0.16412948
116	0x3e32b72a	0.17452684
117	0xbce28a7e	-0.027653929
118	0x3e136e08	0.14397442
119	0xbd2dfe01	-0.042478565
120	0xbe488871	-0.19583298
121	0x3d3abbcb	0.04558925
122	0x3be41534	0.0069605354
123	0x3d61bc18	0.05511102
124	0xbc590421	-0.013245613
125	0xbe7c5cfa	-0.24644843
126	0xbcfa9cac	-0.030592285
127	0x3da62fb1	0.08114565
128	0xbdf3cbeb	-0.11904129
129	0x3e131114	0.14361984
130	0x3e205707	0.15658198
131	0x3e6997e9	0.22811855
132	0xbd6dcbba	-0.058055617
133	0xbe0cd68c	-0.13753718
134	0xbe3505c2	-0.17677978
135	0x3d249172	0.04017777
136	0xbdcd249c	-0.10016748
137	0xbe7f8971	-0.24954773
138	0x3d661d1d	0.05618011
139	0x3e210ed6	0.15728316
140	0x3c915557	0.017740889
141	0xbe126b34	-0.14298707
142	0xbe359e56	-0.17736182
143	0xbe810d47	-0.25205442
144	0x3e434bef	0.19071935
145	0xbda8b95c	-0.082384795
146	0x3dea5d39	0.11443562
147	0xbe3444fe	-0.17604443
148	0xbe36b7c0	-0.17843533
149	0xbe4d9d39	-0.20079507
150	0x3e236d86	0.15959749
151	0x3e6e732b	0.2328612
152	0xbe729fa9	-0.23693718
153	0x3e47ec65	0.19523771
154	0xbe5ae2e8	-0.2137562
155	0x3e15936b	0.14607017
156	0xbdae0fbf	-0.08499097
157	0xbe2f3fb7	-0.17114149
158	0x3e86c5ae	0.26322693
159	0x3d436d44	0.047711626
160	0xbe638ad0	-0.22220922
161	0x3e49e4d5	0.19716199
162	0x3e26fa71	0.16306473
163	0x3e8cfe59	0.27537802
164	0xbe75473e	-0.23952958
165	0xbe09101d	-0.13385053
166	0x3e2fd953	0.17172746
167	0xbe37fd63	-0.17967753
168	0x3e6fe8f9	0.23428716
169	0xbe33aed9	-0.17547168
170	0xbd9f6501	-0.07782937
171	0xbd48adf2	-0.048994012
172	0x3de444ee	0.1114596
173	0xbddf5a98	-0.10905951
174	0xbd56cc54	-0.052440956
175	0xbe3eb1d6	-0.18622527
176	0x3d3e38a4	0.046440735
177	0xbe880095	-0.26562944
178	0x3bd3f4ad	0.0064683766
179	0x3e47f45c	0.1952681
180	0xbe89b486	-0.2689554
181	0x3d158de4	0.03651227
182	0xbdd920cc	-0.10601959
183	0x3d239414	0.03993614
184	0x3d608427	0.05481353
185	0x3e26d98c	0.16293925
186	0x3e1dfa83	0.15427594
187	0xbe391d78	-0.18077648
188	0xbe865159	-0.26233938
189	0xbe023a8a	-0.12717643
190	0xbce3065a	-0.02771299
191	0xbcb9f59d	-0.022700125
192	0x3c993808	0.018703476
193	0xbe7ca05e	-0.2467055
194	0xbe0459ed	-0.12924929
195	0x3e797a9f	0.24363182
196	0xbe3b4660	-0.18288565
197	0xbe7a033f	-0.24415301
198	0xbd6a4331	-0.057192985
199	0x3e349063	0.17633204
200	0xbbc7b5a3	-0.006094651
201	0x3dc70a46	0.097187564
202	0x3e0ab96e	0.13547298
203	0xbda73eec	-0.08166298
204	0x3d1558df	0.036461707
205	0x3e061b49	0.13096346
206	0xbe31a8ea	-0.17349592
207	0xbd03208b	-0.032013457
208	0x3ca1505a	0.019691635
209	0xbe430f43	-0.1904879
210	0x3c9d3c2e	0.019193735
211	0xbe803ea5	-0.25047794
212	0xbe044047	-0.12915145
213	0xbe3cd57b	-0.18440811
214	0xbda350a2	-0.07974364
215	0xbe1f0788	-0.15530217
216	0xbe81a58d	-0.25321618
217	0xbc50afac	-0.012737196
218	0x3dc3f89f	0.09568905
219	0x3e2cd931	0.16879727
220	0x3da972b1	0.08273829
221	0xbd8bbbc5	-0.068229236
222	0xbe87d73d	-0.265314
223	0xbe4f32e4	-0.20234257
224	0x3e517abb	0.20456974
225	0x3d6d78ee	0.057976656
226	0xbcaec3cc	-0.021333598
227	0xbe181dea	-0.14855161
228	0x3c122b10	0.0089214
229	0xbe357adf	-0.17722653
230	0x3e3f8cfa	0.18706122
231	0x3d0839b5	0.03325816
232	0xbe3a3626	-0.18184718
233	0x3e531e17	0.20616947
234	0xbe89d80c	-0.26922643
235	0xbc6b297a	-0.0143531505
236	0xbdafcb54	-0.08583704
237	0x3e7e19fd	0.24814601
238	0x3d37f73a	0.044913508
239	0x3e29d4c2	0.16585067
240	0x3dd7b403	0.105323814
241	0xbe3c398b	-0.18381326
242	0xbd2a6af2	-0.041605897
243	0xbe2a1fa9	-0.1661364
244	0xbe22b533	-0.15889435
245	0x3dae4b89	0.08510501
246	0x3e727e2b	0.23680942
247	0x3e1ad065	0.15118559
248	0x3cc8c3b0	0.024507374
249	0xbdffc3a3	-0.124884866
250	0x3e6539a1	0.22385265
251	0xbcb36053	-0.021896517
252	0x3dd5d6b1	0.1044134
253	0x3e861b0c	0.2619251
254	0xbdeef364	-0.11667517
255	0x3cc3dbbf	0.023908494

embedding.bias f4 [32]
0	0x3e4b8489	0.19874777
1	0x3e6bb94e	0.23019907
2	0xbe0e9f3d	-0.13927932
3	0x3df7958f	0.12089073
4	0xbe1cf69f	-0.15328453
5	0x3e7dd5cb	0.24788587
6	0x3e30a795	0.17251427
7	0xbe1fc789	-0.1560346
8	0x3d08104d	0.03321867
9	0xbe18dc34	-0.14927751
10	0xbe56c514	-0.20973617
11	0x3d2042bf	0.039126154
12	0x3e7f8f29	0.24956955
13	0xbe69223d	-0.22766967
14	0xbcf15bff	-0.029462812
15	0x3dcfe4b8	0.101510465
16	0xbe711584	-0.23543364
17	0xbe0c712d	-0.13715048
18	0x3e44b118	0.19208181
19	0xbe5d7b8b	-0.21629159
20	0xbb092ecc	-0.0020932434
21	0x3e03811a	0.12842217
22	0xbdd63f76	-0.10461323
23	0xbe7a1cba	-0.24425021
24	0xbe116d21	-0.14201786
25	0xbe84decc	-0.2595123
26	0xbe7d7063	-0.24749903
27	0xbd8bc88b	-0.0682536
28	0x3e5c10ae	0.21490738
29	0xbe653469	-0.22383274
30	0xbd4ed9a6	-0.050500534
31	0x3e2249d1	0.15848471

pos_encoder.pe f4 [1, 50, 32]
0	0x00000000	0.0
1	0x3f800000	1.0
2	0x00000000	0.0
3	0x3f800000	1.0
4	0x00000000	0.0
5	0x3f800000	1.0
6	0x00000000	0.0
7	0x3f800000	1.0
8	0x00000000	0.0
9	0x3f800000	1.0
10	0x00000000	0.0
11	0x3f800000	1.0
12	0x00000000	0.0
13	0x3f800000	1.0
14	0x00000000	0.0
15	0x3f800000	1.0
16	0x00000000	0.0
17	0x3f800000	1.0
18	0x00000000	0.0
19	0x3f800000	1.0
20	0x00000000	0.0
21	0x3f800000	1.0
22	0x00000000	0.0
23	0x3f800000	1.0
24	0x00000000	0.0
25	0x3f800000	1.0
26	0x00000000	0.0
27	0x3f800000	1.0
28	0x00000000	0.0
29	0x3f800000	1.0
30	0x00000000	0.0
31	0x3f800000	1.0
32	0x3f576aa4	0.84147096
33	0x3f0a5141	0.54030234
34	0x3f087dba	0.53316844
35	0x3f58940e	0.84600914
36	0x3e9f393e	0.3109836
37	0x3f734e6b	0.9504153
38	0x3e35233a	0.17689219
39	0x3f7bf683	0.9842302
40	0x3dcc7576	0.099833414
41	0x3f7eb898	0.9950042
42	0x3d6636ae	0.05620449
43	0x3f7f9868	0.9984193
44	0x3d01815b	0.031617504
45	0x3f7fdf3c	0.99950004
46	0x3c91ab43	0.01778186
47	0x3f7ff5a3	0.99984187
48	0x3c23d657	0.009999833
49	0x3f7ffcb9	0.99995
50	0x3bb8445a	0.0056233825
51	0x3f7ffef7	0.9999842
52	0x3b4f3e1c	0.0031622713
53	0x3f7fffac	0.999995
54	0x3ae91520	0.0017782785
55	0x3f7fffe6	0.99999845
56	0x3a83126d	0.0009999998
57	0x3f7ffff8	0.9999995
58	0x3a136a13	0.0005623411
59	0x3f7ffffe	0.9999999
60	0x39a5cb60	0.0003162278
61	0x3f7fffff	0.99999994
62	0x393a7753	0.00017782794
63	0x3f800000	1.0
64	0x3f68c7b7	0.9092974
65	0xbed51133	-0.41614684
66	0x3f66f20a	0.9021307
67	0x3edce8b2	0.43146282
68	0x3f17541b	0.5911271
69	0x3f4e7bec	0.8065784
70	0x3eb247f6	0.34820527
71	0x3f6ffaa6	0.93741834
72	0x3e4b6ff8	0.19866931
73	0x3f7ae5a5	0.9800666
74	0x3de5d986	0.1122313
75	0x3f7e61f3	0.9936821
76	0x3d8170c8	0.063203394
77	0x3f7f7cf9	0.9980007
78	0x3d11a55d	0.035558093
79	0x3f7fd68e	0.9993676
80	0x3ca3d43e	0.019998666
81	0x3f7ff2e5	0.9998
82	0x3c38439b	0.011246587
83	0x3f7ffbdb	0.99993676
84	0x3bcf3dd8	0.006324511
85	0x3f7ffeb1	0.99998003
86	0x3b691508	0.0035565514
87	0x3f7fff96	0.9999937
88	0x3b031268	0.0019999985
89	0x3f7fffdf	0.99999803
90	0x3a936a12	0.0011246821
91	0x3f7ffff5	0.99999934
92	0x3a25cb5f	0.0006324555
93	0x3f7ffffd	0.9999998
94	0x39ba7753	0.00035565588
95	0x3f7fffff	0.99999994
96	0x3e1081c3	0.14112
97	0xbf7d7026	-0.9899925
98	0x3f7e45d7	0.9932532
99	0xbded7fab	-0.11596616
100	0x3f5009c2	0.8126489
101	0x3f152f58	0.58275366
102	0x3f022f6c	0.5085361
103	0x3f5c6d29	0.86104065
104	0x3e974e6c	0.2955202
105	0x3f7490ef	0.9553365
106	0x3e2beed7	0.16790329
107	0x3f7c5d9e	0.9858035
108	0x3dc1ffc0	0.094726086
109	0x3f7ed94f	0.99550337
110	0x3d5a694f	0.053323086
111	0x3f7fa2c3	0.9985773
112	0x3cf5b91f	0.0299955
113	0x3f7fe283	0.99955004
114	0x3c8a31c6	0.016869437
115	0x3f7ff6ad	0.9998577
116	0x3c1b6e0d	0.009486687
117	0x3f7ffd0d	0.999955
118	0x3baecfa8	0.005334813
119	0x3f7fff11	0.99998575
120	0x3b449b92	0.0029999954
121	0x3f7fffb5	0.9999955
122	0x3add1f17	0.0016870227
123	0x3f7fffe8	0.99999857
124	0x3a78b10e	0.00094868324
125	0x3f7ffff9	0.9999996
126	0x3a0bd97e	0.0005334838
127	0x3f7ffffe	0.9999999
128	0xbf41bdcf	-0.7568025
129	0xbf275530	-0.6536436
130	0x3f4749ec	0.7784717
131	0xbf20af9e	-0.6276797
132	0x3f741dde	0.95358074
133	0x3e9a2eb1	0.30113748
134	0x3f271fbc	0.652828
135	0x3f41ebed	0.7575062
136	0x3ec761d7	0.38941833
137	0x3f6bcaa7	0.921061
138	0x3e6465c5	0.22304447
139	0x3f798d09	0.9748083
140	0x3e012e88	0.12615407
141	0x3f7df469	0.99201065
142	0x3d918dc9	0.071071215
143	0x3f7f5a46	0.9974712
144	0x3d23cbdb	0.039989334
145	0x3f7fcb94	0.9992001
146	0x3cb840a0	0.022491753
147	0x3f7fef6c	0.99974704
148	0x3c4f3cc9	0.01264877
149	0x3f7ffac2	0.99992
150	0x3be914a7	0.0071130577
151	0x3f7ffe58	0.9999747
152	0x3b831257	0.003999989
153	0x3f7fff7a	0.999992
154	0x3b136a0c	0.0022493629
155	0x3f7fffd6	0.9999975
156	0x3aa5cb5d	0.0012649108
157	0x3f7ffff3	0.9999992
158	0x3a3a7752	0.0007113117
159	0x3f7ffffc	0.99999976
160	0xbf757c10	-0.9589243
161	0x3e913c2c	0.2836622
162	0x3ea5dad8	0.32393527
163	0xbf723240	-0.94607925
164	0x3f7ffc7f	0.99994653
165	0xbc2972e9	-0.010342338
166	0x3f46caab	0.77652997
167	0x3f214cf1	0.6300803
168	0x3ef57743	0.47942552
169	0x3f60a940	0.87758255
170	0x3e8e11ed	0.2774805
171	0x3f75f27c	0.96073127
172	0x3e213c1d	0.15745588
173	0x3f7cce81	0.987526
174	0x3db5db22	0.08879687
175	0x3f7efd1e	0.99604976
176	0x3d4cb6f4	0.049979165
177	0x3f7fae19	0.99875027
178	0x3ce64dfb	0.028113356
179	0x3f7fe619	0.99960476
180	0x3c81857e	0.015810724
181	0x3f7ff7cf	0.999875
182	0x3c11acbb	0.00889128
183	0x3f7ffd69	0.9999605
184	0x3ba3d6dd	0.004999979
185	0x3f7fff2f	0.99998754
186	0x3b384489	0.0028117022
187	0x3f7fffbe	0.99999607
188	0x3acf3e32	0.0015811382
189	0x3f7fffeb	0.99999875
190	0x3a691526	0.0008891396
191	0x3f7ffff9	0.9999996
192	0xbe8f0f8c	-0.2794155
193	0x3f75cdb8	0.96017027
194	0xbe6be576	-0.23036751
195	0xbf791d53	-0.9731037
196	0x3f72784e	0.9471482
197	0xbea43f6d	-0.3207964
198	0x3f603088	0.8757405
199	0x3ef72f35	0.48278204
200	0x3f108c68	0.5646424
201	0x3f534932	0.8253356
202	0x3ea97dfc	0.3310393
203	0x3f7190e2	0.943617
204	0x3e41206e	0.18860027
205	0x3f7b67e3	0.98205394
206	0x3dda19c3	0.10649445
207	0x3f7e8b51	0.9943133
208	0x3d759cd1	0.059964005
209	0x3f7f8a12	0.99820054
210	0x3d0a2cbe	0.033734076
211	0x3f7fdab3	0.99943084
212	0x3c9b6c43	0.018972522
213	0x3f7ff434	0.99982
214	0x3c2ecf05	0.0106694745
215	0x3f7ffc45	0.9999431
216	0x3bc49b58	0.0059999637
217	0x3f7ffed2	0.999982
218	0x3b5d1f03	0.0033740408
219	0x3f7fffa1	0.99999434
220	0x3af8b106	0.0018973656
221	0x3f7fffe2	0.9999982
222	0x3a8bd97c	0.0010669674
223	0x3f7ffff7	0.99999946
224	0x3f283046	0.6569866
225	0x3f40ffbd	0.75390226
226	0xbf36b670	-0.7137213
227	0xbf334f5e	-0.7004298
228	0x3f4ce86e	0.8004216
229	0xbf1974bc	-0.5994375
230	0x3f728444	0.9473307
231	0x3ea3f8ba	0.320257
232	0x3f24eb72	0.6442176
233	0x3f43ccb3	0.7648422
234	0x3ec460de	0.38355154
235	0x3f6c6bc6	0.9235195
236	0x3e60d350	0.2195561
237	0x3f79c0ea	0.9755999
238	0x3dfe46bc	0.12415835
239	0x3f7e04e9	0.9922624
240	0x3d8f3e32	0.06994285
241	0x3f7f5f81	0.997551
242	0x3d21315e	0.03935372
243	0x3f7fcd3b	0.9992253
244	0x3cb552a2	0.022134129
245	0x3f7feff2	0.999755
246	0x3c4bf12a	0.012447635
247	0x3f7ffaec	0.9999225
248	0x3be55fc5	0.006999942
249	0x3f7ffe65	0.9999755
250	0x3b80fcbc	0.0039363783
251	0x3f7fff7e	0.99999225
252	0x3b1111ec	0.0022135926
253	0x3f7fffd7	0.99999756
254	0x3aa32866	0.0012447953
255	0x3f7ffff3	0.9999992

transformer_encoder.layers.0.self_attn.in_proj_weight f4 [96, 32]
0	0xbe1d0c07	-0.1533662
1	0xbe490993	-0.19632559
2	0xbd5d930e	-0.05409532
3	0xbdf0cdf7	-0.11758035
4	0x3dcfeefc	0.101530045
5	0x3c0c92d4	0.008579928
6	0xbdf3f14b	-0.11911257
7	0x3c81787d	0.015804524
8	0x3d7bbcb1	0.061459247
9	0x3e27c597	0.16383968
10	0x3d5ab7d0	0.053397954
11	0xbe214c1e	-0.15751693
12	0x3e0dcbbf	0.13847254
13	0xbdf850a3	-0.12124755
14	0x3e120502	0.14259723
15	0xbe2d3d6f	-0.16917966
16	0x3e43966c	0.1910035
17	0xbdbfc284	-0.09363273
18	0x3e1edc40	0.15513706
19	0x3e48673a	0.19570628
20	0xbe2ec423	-0.17067008
21	0xbdf989e8	-0.12184507
22	0x3dd42430	0.10358465
23	0x3ca67461	0.020319166
24	0x3c61c96e	0.013780935
25	0x3e028560	0.12746191
26	0x3b33ccec	0.0027435375
27	0x3cc7ba25	0.024380753
28	0x3e5ab595	0.2135833
29	0x3e29597b	0.1653804
30	0xbddda45d	-0.108223654
31	0xbdddca46	-0.10829596
32	0xbd20bf2f	-0.039244827
33	0xbd9e206c	-0.07721028
34	0xbe32e340	-0.17469501
35	0x3e29846c	0.16554421
36	0xbe36336c	-0.17793053
37	0xbcaaf64c	-0.020869397
38	0x3e11a78c	0.1422407
39	0xbe078e71	-0.13237931
40	0xbd987d65	-0.07445792
41	0x3e4894db	0.19588034
42	0xbe51199e	-0.20419928
43	0xbe451598	-0.19246519
44	0xbe4dd687	-0.20101367
45	0xbe0666b0	-0.1312511
46	0x3c7a4989	0.015276321
47	0x3d358a8b	0.044321578
48	0xbe37c1a7	-0.17944966
49	0xbd177539	-0.036977027
50	0xbd06ab66	-0.032878302
51	0xbd00ae1f	-0.031416055
52	0x3c94c6c9	0.018161194
53	0x3dbdb0d5	0.09262244
54	0xbe1a8d1d	-0.15092893
55	0xbe170d45	-0.14751156
56	0x3dc2c965	0.09511069
57	0x3d902040	0.07037401
58	0xbe2e7611	-0.17037226
59	0xbd9a7194	-0.075411946
60	0x3e087ca3	0.13328795
61	0xbd8df19c	-0.06930849
62	0xbe63ba7f	-0.22239111
63	0x3e553f52	0.20824936
64	0x3d443fc0	0.04791236
65	0xbe57018c	-0.20996684
66	0xbe232cea	-0.15935102
67	0x3e6db0ef	0.23212026
68	0xbe05d8a1	-0.13070919
69	0xbe236109	-0.15954985
70	0xbdb6642d	-0.08905826
71	0xbd4874db	-0.048939567
72	0x3e119fc4	0.14221102
73	0x3e2628e4	0.16226536
74	0xbe2e4df2	-0.17021921
75	0xbe0ae552	-0.13564041
76	0xbde2689e	-0.110551104
77	0xbd50c984	-0.05097343
78	0xbd7450ae	-0.059647255
79	0xbe0ec6de	-0.1394305
80	0x3e3b7136	0.18304905
81	0xbd022935	-0.03177758
82	0x3d331e48	0.04373005
83	0xbe0cca20	-0.1374898
84	0x3cb331cb	0.02187433
85	0xbdea7fe5	-0.11450175
86	0x3cfe303c	0.03102886
87	0x3db0bc8b	0.08629712
88	0xbdd50a97	-0.104024105
89	0xbe2a7ce5	-0.16649206
90	0xbe569dcc	-0.20958632
91	0x3d7e8621	0.062139634
92	0xbe177eec	-0.1479451
93	0x3d85718d	0.06515799
94	0xbe3e54cf	-0.1858704
95	0xbd5a452d	-0.053288627
96	0x3e09173b	0.13387768
97	0xbd0d2dc0	-0.03446746
98	0xbd30ecd2	-0.0431946
99	0x3e4a2dcd	0.19744034
100	0xbda217c0	-0.07914686
101	0x3dc4f355	0.096167244
102	0xbe539b73	-0.20664768
103	0x3e1b4eed	0.15166827
104	0x3e0b51bb	0.13605396
105	0x3d88f704	0.066877395
106	0x3b69d814	0.003568177
107	0x3d71e8d7	0.059059944
108	0x3db292b6	0.08719389
109	0x3d132b29	0.035929833
110	0x3da0ae99	0.07845802
111	0xbe247675	-0.16060813
112	0xbe5f387d	-0.21798892
113	0xbe120ba2	-0.1426225
114	0x3dd68aeb	0.10475715
115	0x3d7c6dad	0.061628032
116	0x3d6f55e2	0.058431514
117	0x3af5c546	0.0018750809
118	0x3e2d8ba0	0.16947794
119	0xbe5cd4f1	-0.21565606
120	0xbe2f3527	-0.1711012
121	0x3d77ddbf	0.060514208
122	0x3e39b011	0.1813357
123	0xbdd25cb0	-0.10271585
124	0x3e276345	0.16346462
125	0xbdce2849	-0.100662775
126	0xbd86f04a	-0.065888
127	0xbbb6d675	-0.0055797645
128	0xbdf20fb4	-0.118194014
129	0x3cbab60c	0.022791885
130	0xbd22f660	-0.039785743
131	0x3e39268e	0.18081114
132	0x3d9a6454	0.07538667
133	0x3e092535	0.133931
134	0xbb8b52d4	-0.0042518172
135	0xbd322ad1	-0.043497864
136	0xbc020187	-0.007934934
137	0x3d377b85	0.04479553
138	0xbe39761e	-0.18111464
139	0xbe493bc4	-0.19651705
140	0x3d4ed097	0.050491896
141	0x3e070423	0.13185172
142	0x3dea54aa	0.1144193
143	0xbdceb3d5	-0.10092894
144	0xbd49b3a1	-0.049243573
145	0xbe0a37fd	-0.1349792
146	0xbdfca16f	-0.123354785
147	0xbd91eac2	-0.071248546
148	0xbd4577bb	-0.048209887
149	0x3c1ea25d	0.009682265
150	0x3e01a72e	0.1266143
151	0x3e294019	0.16528358
152	0x3de059e1	0.10954643
153	0xbe4831a0	-0.1955018
154	0xbdfd33b5	-0.12363378
155	0x3bcf8a10	0.006333597
156	0xbcffb2c5	-0.031213174
157	0xbe1a92e4	-0.15095097
158	0xbe1e702e	-0.1547248
159	0x3e28df52	0.1649144
160	0x3d41a2a6	0.047274254
161	0xbe2972ce	-0.16547701
162	0xbd4beb28	-0.04978481
163	0x3e3e7d87	0.18602572
164	0xbd9bb283	-0.07602408
165	0xbe0db7a7	-0.13839589
166	0xbe46b27d	-0.19404025
167	0x3da41ea4	0.08013657
168	0xbd3b0550	-0.045659363
169	0xbe307db1	-0.17235447
170	0xbe2938d9	-0.16525592
171	0x3de87081	0.113495834
172	0x3e172ecd	0.14763947
173	0xbdf875f5	-0.121318735
174	0x3d736e7e	0.059431545
175	0x3da3f1a9	0.080050774
176	0x3e688b91	0.2270949
177	0x3e262579	0.16225232
178	0x3e30fda2	0.17284253
179	0xbe146833	-0.14492874
180	0x3dce5a23	0.10075786
181	0x3e06f415	0.13179047
182	0xbe51961b	-0.20467417
183	0xbdcee87d	-0.10102937
184	0x3d5e7676	0.054312192
185	0xbd0a728c	-0.033800647
186	0x3e016d03	0.12639241
187	0xbd43ca8c	-0.047800586
188	0x3db516cc	0.08842239
189	0x3ca823e2	0.020524923
190	0xbc8b72ae	-0.017022457
191	0xbd5f0f5a	-0.054458
192	0xbe0061f5	-0.12537368
193	0x3d1264ea	0.03574077
194	0xbe13097d	-0.14359088
195	0x3e68be1e	0.22728774
196	0x3dd6258e	0.10456382
197	0xbe0881ba	-0.13330737
198	0x3e12dc1d	0.14341779
199	0xbd1db96f	-0.03850692
200	0xbe4e68c4	-0.20157152
201	0x3e2c1e61	0.16808464
202	0xbe42dfd0	-0.1903069
203	0x3e570d61	0.21001197
204	0xbe0d0578	-0.13771617
205	0xbda21167	-0.079134755
206	0x3e587718	0.2113918
207	0x3da71091	0.08157457
208	0xbd4e4008	-0.050354034
209	0x3d6dd5b5	0.058065135
210	0x3d898d33	0.06716385
211	0xbe2e8ff2	-0.17047098
212	0x3dcf944e	0.10135709
213	0xbe37b0ce	-0.1793854
214	0xbd4e1689	-0.05031446
215	0x3ca7ea4e	0.020497467
216	0x3bf0e041	0.007350952
217	0xbc884c9a	-0.016638089
218	0xbd25f935	-0.040520865
219	0x3da125a6	0.07868509
220	0x3e3d01de	0.18457744
221	0x3e1628af	0.14663957
222	0x3e06e5c3	0.13173585
223	0x3e1eae8d	0.15496273
224	0x3dde68f4	0.10859862
225	0xbe37186e	-0.17880413
226	0x3e08a057	0.13342415
227	0xbdfcb0d9	-0.123384185
228	0xbd8baf8f	-0.068205945
229	0x3dbc6949	0.09199769
230	0xbe4476b2	-0.19185904
231	0x3c40032f	0.011719509
232	0x3e0f1d8d	0.13976116
233	0x3d658e2b	0.056043785
234	0x3d9c174a	0.076216295
235	0x3d37c356	0.04486402
236	0xbd56dfc4	-0.052459493
237	0x3e1720fd	0.14758678
238	0xbde13931	-0.109972365
239	0xbe2450ab	-0.16046397
240	0xbdcb3b37	-0.09923404
241	0xbdcd90fc	-0.10037419
242	0xbd8af44f	-0.067848794
243	0xbe2f00f0	-0.17090201
244	0x3e4b8c09	0.19877638
245	0xbe1c8fe4	-0.15289265
246	0x3da78c40	0.081810474
247	0xbe49a834	-0.1969307
248	0x3e15b3ad	0.14619322
249	0x3e04fde8	0.12987483
250	0xbd8c6c43	-0.06856587
251	0xbcc3090a	-0.023808021
252	0x3d458aa5	0.048227925
253	0x3d28ba0e	0.04119306
254	0xbe4e54aa	-0.20149484
255	0xbe4ae69f	-0.19814537

transformer_encoder.layers.0.self_attn.in_proj_bias f4 [96]
0	0x3c1d0119	0.009582781
1	0x3b22848f	0.002479825
2	0xbb08daf1	-0.0020882452
3	0xbaa32790	-0.0012447704
4	0xbb139b36	-0.0022522933
5	0x3bb55f81	0.0055350666
6	0xbbac306a	-0.005254795
7	0xba0f0b23	-0.00054566766
8	0x3c3c7810	0.0115032345
9	0xbc1f751f	-0.009732514
10	0x3bf7c666	0.0075614927
11	0x3c65a0e7	0.014015413
12	0xbbec0204	-0.0072023887
13	0xbc46d2e1	-0.012135238
14	0x3c39c969	0.011339524
15	0x3be8c382	0.0071033845
16	0x3b9412f0	0.004518859
17	0xbc1778bf	-0.009245097
18	0xbc801270	-0.015633792
19	0x3b3ccd57	0.0028808916
20	0xbb129c5e	-0.0022371034
21	0xbbed661b	-0.007244838
22	0xbc075e07	-0.008262164
23	0x3b4c0362	0.0031129946
24	0xbc94ba63	-0.018155282
25	0xbbb5b3af	-0.0055451016
26	0xba378008	-0.0006999974
27	0x3b7379de	0.0037151496
28	0x3c92276c	0.017841063
29	0x3c0496c5	0.008092587
30	0x3c4617cb	0.012090634
31	0xbbd907eb	-0.0066232583
32	0xb7e47f60	-2.7239032e-05
33	0x38c0cac7	9.193044e-05
34	0x3873e6f2	5.81508e-05
35	0xb8e37636	-0.00010846222
36	0xb6a1deaf	-4.8240977e-06
37	0xb71ef030	-9.473457e-06
38	0x3751d895	1.2507798e-05
39	0x38bf73bf	9.129149e-05
40	0x370e5938	8.484632e-06
41	0xb6f83854	-7.3975334e-06
42	0x3449f3da	1.8808296e-07
43	0x3794deb9	1.7746688e-05
44	0x37abb0ef	2.046718e-05
45	0xb8312b15	-4.224021e-05
46	0x36f258c8	7.2224975e-06
47	0x3770170f	1.43104835e-05
48	0xb75d385a	-1.3185747e-05
49	0x377df8c5	1.5137896e-05
50	0xb7e7841b	-2.7598862e-05
51	0xb7a1b32b	-1.9276127e-05
52	0x378b966c	1.6640137e-05
53	0xb7ade033	-2.0727608e-05
54	0xb6228f12	-2.422316e-06
55	0xb8296209	-4.0384042e-05
56	0x369890c3	4.5468055e-06
57	0x383848c7	4.3936798e-05
58	0xb79cffb5	-1.8715722e-05
59	0xb7149b35	-8.857624e-06
60	0x3798dd04	1.822273e-05
61	0x373881e3	1.0997496e-05
62	0x37c929db	2.3980558e-05
63	0xb6ef2a77	-7.1276986e-06
64	0x3b9165a3	0.004437165
65	0x3adb9f81	0.001675591
66	0x3c256a93	0.01009621
67	0xbb099294	-0.0020991908
68	0xbc27dccd	-0.010245514
69	0x3c98f7a0	0.018672764
70	0x3b84d8e3	0.004054175
71	0xbc8676dd	-0.0164141
72	0xbc2d2218	-0.010567211
73	0xbc0e5abf	-0.008688628
74	0x3b0f6346	0.002187924
75	0x3c02a46e	0.007973773
76	0xbc2392fe	-0.009983776
77	0x3bdde396	0.006771515
78	0xbb5c7453	-0.003363867
79	0xbc074a85	-0.008257513
80	0xbc8e7274	-0.01738856
81	0x3c0d5d78	0.008628242
82	0x3ab5cda0	0.0013870485
83	0xbad19145	-0.0015988728
84	0xbc80b135	-0.015709499
85	0x3c306ba8	0.010767855
86	0xbc5d0ace	-0.013491346
87	0x3c5943bd	0.013260779
88	0xbc1e1242	-0.009647908
89	0xbc2ec447	-0.010666913
90	0xba18245c	-0.0005803758
91	0x3c302613	0.010751265
92	0x3ba37fa2	0.0049895803
93	0xbb84d34c	-0.004053509
94	0x3c1fad41	0.009745897
95	0xbc65d154	-0.0140269585

transformer_encoder.layers.0.self_attn.out_proj.weight f4 [32, 32]
0	0x3e152707	0.14565669
1	0xbe0da3b5	-0.1383198
2	0x3d3518dc	0.04421316
3	0x3da9f7ed	0.08299241
4	0x3dc51de9	0.096248455
5	0xbde489c2	-0.11159088
6	0xbdd78d9f	-0.10525059
7	0xbcc8b6c0	-0.024501204
8	0x3e0edf83	0.1395245
9	0xbe1c409d	-0.15259023
10	0xbc773fd8	-0.015090905
11	0xbd9bc5bb	-0.076060735
12	0x3e2152cf	0.15754245
13	0xbd863f27	-0.06555014
14	0xbdeea99e	-0.11653446
15	0x3df54a4e	0.11977063
16	0xbd70a03d	-0.058746565
17	0x3d2d5a56	0.04232248
18	0xbd74c67b	-0.0597596
19	0xbd15274e	-0.036414437
20	0x3e103e98	0.14086378
21	0x3e1e4511	0.15456034
22	0x3d9dae5d	0.07699273
23	0xbe37e59b	-0.17958681
24	0x3e19cd10	0.15019631
25	0x3c941517	0.018076463
26	0xbcf3eb36	-0.029775243
27	0xbe09ed25	-0.1346937
28	0xbe1f3a71	-0.15549637
29	0x3e1f5ef8	0.15563571
30	0x3c1e1221	0.009647877
31	0x3d5e7ca1	0.054318074
32	0x3d5c9e28	0.053861767
33	0x3da2de36	0.079525396
34	0x3da6ea4f	0.081501596
35	0x3d2d183b	0.042259436
36	0x3c6d3175	0.0144771235
37	0x3e10047a	0.14064208
38	0x3c2cc5a5	0.010545169
39	0x3c9a0c68	0.018804744
40	0xbe2cbb5f	-0.16868351
41	0x3d40feca	0.047117986
42	0xbd8b6415	-0.068061985
43	0xbd28663c	-0.041113123
44	0x3d1970d1	0.037461106
45	0xbd85fe6a	-0.06542666
46	0xbe15b12f	-0.14618371
47	0x3c41609d	0.01180282
48	0xbde41fea	-0.111388996
49	0x3ba6e59e	0.0050932905
50	0x3de4b646	0.111675784
51	0x3e3a20b1	0.18176533
52	0x3e0397d7	0.12850891
53	0xbdaf0331	-0.085455306
54	0x3de2ef88	0.11080843
55	0xbdff5967	-0.12468224
56	0xbdda895f	-0.10670733
57	0x3e13e548	0.14442933
58	0xbd79ce71	-0.060987893
59	0xbde13b81	-0.109976776
60	0xbe243cd2	-0.16038826
61	0x3e13b98f	0.14426254
62	0xbd5cdfd9	-0.053924415
63	0xbdcf3b78	-0.10118765
64	0x3c19dea2	0.009391459
65	0x3c7b4efc	0.015338656
66	0x3d0f6b17	0.03501424
67	0x3ddb3211	0.10702909
68	0xbd639d65	-0.055570025
69	0x3b9eb725	0.00484361
70	0x3da06d88	0.078333914
71	0x3e3704a0	0.17872858
72	0xbdc5bd65	-0.09655265
73	0xbdba6f8f	-0.09103309
74	0x3e00dedc	0.12585014
75	0x3da33baf	0.07970368
76	0x3e343517	0.17598377
77	0xbcb7bfbb	-0.022430291
78	0x3dcd7fd6	0.100341484
79	0xbcd3b7a1	-0.025844397
80	0xbdd36df0	-0.10323703
81	0x3d0de012	0.03463752
82	0x3dc21dd4	0.094783455
83	0xbe16a74c	-0.14712256
84	0xbe074fe6	-0.13214073
85	0x3df52d48	0.11971527
86	0xbe137126	-0.14398631
87	0xbcfd149a	-0.030893613
88	0x3d9b920f	0.07596218
89	0xbdf21af3	-0.118215464
90	0x3dc996be	0.09843205
91	0x3d695f25	0.056975503
92	0x3d7fb87a	0.06243179
93	0x3e281dfd	0.1641769
94	0x3c600c93	0.013674873
95	0xbd6b67c9	-0.057472024
96	0x3e1c348b	0.15254419
97	0xbe11b6aa	-0.14229837
98	0xbd9c1a76	-0.076222345
99	0x3d1968b9	0.037453387
100	0xbdd22399	-0.10260696
101	0xbd982937	-0.07429736
102	0x3ddf530a	0.1090451
103	0x3a5d7940	0.00084485486
104	0xbe268b3f	-0.16264056
105	0x3e042d64	0.1290794
106	0x3d89a924	0.06721714
107	0x3dbbe9f0	0.091754794
108	0xbdd53fbe	-0.104125485
109	0xbd9981ff	-0.07495498
110	0xbdc2e9b4	-0.095172316
111	0x3e06cee1	0.13164856
112	0xbe239927	-0.15976392
113	0xbd337b19	-0.043818567
114	0xbc20d79a	-0.009817028
115	0xbd20243f	-0.039097067
116	0xbd7cec7f	-0.061748978
117	0xbe1c902a	-0.15289369
118	0xbd11a16e	-0.035554342
119	0x3d3560f1	0.044281904
120	0x3e167adc	0.14695305
121	0x3b86cda2	0.004113869
122	0xbe3edbb8	-0.18638504
123	0x3e286cfb	0.16447823
124	0x3a850259	0.0010147794
125	0xbdef0350	-0.11670554
126	0xbd96c325	-0.073614396
127	0x3dbb4e4e	0.09145795
128	0x3d89372f	0.066999786
129	0xbcb73794	-0.022365369
130	0x3e177ef7	0.14794527
131	0x3e40c0fc	0.18823618
132	0xbe2595d2	-0.16170433
133	0x3e062892	0.13101414
134	0xbc1c0dc7	-0.009524769
135	0xbe2c46e9	-0.16823925
136	0x3d0fa2a5	0.03506722
137	0xbd5c6dd6	-0.053815685
138	0xbc3c0486	-0.011475688
139	0x3d057062	0.03257788
140	0x3cd5e2c7	0.026109112
141	0xbda08e1e	-0.07839607
142	0x3d11daa5	0.035608906
143	0xbe186e13	-0.1488574
144	0x3de0e5c5	0.10981325
145	0x3bad34f3	0.005285853
146	0x3dd38bb2	0.10329379
147	0xbc17eaec	-0.009272318
148	0xbe057e0d	-0.13036366
149	0x3c958c32	0.018255327
150	0xbe291115	-0.16510423
151	0x3d70a18d	0.058747817
152	0xbde9d376	-0.11417286
153	0x3e1c5d0e	0.15269873
154	0x3d4d88bc	0.05017923
155	0xbdb2ce84	-0.08730796
156	0x3d1da032	0.038482852
157	0xbe1ca6b7	-0.15297972
158	0x3e29f08b	0.16595666
159	0xbe0680ab	-0.1313502
160	0x3e15d80b	0.14633195
161	0x3dc738d5	0.09727637
162	0xbc098bf8	-0.008395188
163	0x3c469849	0.012121269
164	0xbd72ecaa	-0.05930773
165	0x3e236016	0.15954623
166	0xbe1849e4	-0.14871937
167	0x3da387d2	0.0798489
168	0xbd232a20	-0.039835095
169	0xbdc13448	-0.094338
170	0x3e2233f6	0.15840134
171	0x3d2d8ebc	0.04237245
172	0x3deaae62	0.11459042
173	0x3d771949	0.06032685
174	0x3c893875	0.016750554
175	0x3d67ca16	0.05658921
176	0x3e2bd639	0.16780938
177	0xbe1583a1	-0.14600994
178	0x3b997917	0.0046836245
179	0x3e27a6c3	0.16372208
180	0x3c04ae2e	0.008098168
181	0xbe0538e9	-0.13009991
182	0xbd5e6486	-0.054295085
183	0x3d522bcc	0.0513113
184	0xbc0d59c3	-0.008627358
185	0x3d56ea45	0.05246951
186	0xbda23ad3	-0.07921376
187	0xbe1bee05	-0.15227516
188	0xbd859ea2	-0.065243974
189	0xbe0d5b96	-0.13804469
190	0x3db5f423	0.08884456
191	0xbe32566d	-0.17415781
192	0x3d31b075	0.043381173
193	0x3c43f29f	0.011959701
194	0xbda1c124	-0.07898167
195	0x3d14f2fe	0.036364548
196	0x3df5c62c	0.12000689
197	0x3e1a5f9f	0.15075539
198	0x3e0ebe15	0.13939698
199	0xbc13e994	-0.009027857
200	0xbe27c0ce	-0.16382143
201	0xbe0f10e9	-0.13971294
202	0xbdc92271	-0.09821022
203	0xbd96cfb0	-0.07363832
204	0x3e1380db	0.14404623
205	0x3ded7a3c	0.1159558
206	0xbd7cdd95	-0.061734755
207	0xbd36b26d	-0.044603754
208	0x3bb14851	0.005410232
209	0xbdd11604	-0.10209277
210	0xbd6c2b01	-0.0576582
211	0x3db33e38	0.08752102
212	0xbc9b3c9a	-0.018949796
213	0x3e067e80	0.13134193
214	0xbcba280a	-0.02272417
215	0x3db43de3	0.088008665
216	0xbb3fc04e	-0.002925891
217	0x3e191034	0.14947587
218	0xbafabc91	-0.0019129683
219	0x3daef3dc	0.08542606
220	0xbd17f2ba	-0.037096716
221	0xbe11d442	-0.14241126
222	0xbdca7ea6	-0.098874375
223	0xbda1baff	-0.07896995
224	0xbdd85bc1	-0.10564376
225	0x3da00730	0.07813871
226	0x3c0a5868	0.008443929
227	0x3e043429	0.12910523
228	0xbcc8b4c2	-0.024500255
229	0x3e1c7ed3	0.15282755
230	0x3d9cc98f	0.07655632
231	0x3e103709	0.14083494
232	0x3d290cd8	0.041272014
233	0xbd4eda84	-0.05050136
234	0x3e05776a	0.13033834
235	0xbd1ca072	-0.03823895
236	0xba5bc17d	-0.0008383019
237	0xbdb017eb	-0.08598312
238	0xbd58720b	-0.052843135
239	0xbe0713f8	-0.13191211
240	0x3d6a9eb3	0.057280254
241	0xbe1ce053	-0.15319948
242	0x3d9ac2e3	0.07556703
243	0x3d1f5cf6	0.038907014
244	0x3e0cd4dc	0.13753074
245	0x3c42b2aa	0.011883417
246	0xbca30344	-0.019899018
247	0x3c3b97c0	0.011449754
248	0x3dd289f4	0.10280219
249	0xbd9ce94e	-0.07661687
250	0x3dd83c9d	0.10558436
251	0x3d9f7a7a	0.077870324
252	0x3da2eda4	0.079554826
253	0x3e360abb	0.17777531
254	0x3d1a1c4e	0.03762465
255	0xbda50112	-0.08056845

transformer_encoder.layers.0.self_attn.out_proj.bias f4 [32]
0	0xbbe69e6a	-0.0070379274
1	0xbb32a5c8	-0.0027259458
2	0x3c01c4e5	0.0079204785
3	0x3c299f0e	0.010352863
4	0x3c3b9a83	0.011450413
5	0x39574a4c	0.00020531676
6	0xba8de1cf	-0.0010824742
7	0x3a749451	0.0009329962
8	0xbb8cde84	-0.004298987
9	0xbc0056ee	-0.007833226
10	0xbbfc748d	-0.0077043236
11	0xbc5f402b	-0.013626139
12	0xbb663b4c	-0.0035130559
13	0x3ac037e4	0.0014665094
14	0xbb89a749	-0.00420085
15	0xbb94f266	-0.0045454977
16	0xbb63f8f8	-0.0034785848
17	0xbc00535e	-0.007832376
18	0xbc82c352	-0.015962277
19	0x3b7be0ab	0.0038433473
20	0x3bcf0458	0.0063176565
21	0x3bac72e5	0.00526272
22	0x3c42b415	0.011883755
23	0xbae4bbb2	-0.0017450957
24	0x3c35a3a5	0.011086379
25	0xbc378327	-0.011200703
26	0x3babcf64	0.0052432287
27	0xbabbbd5e	-0.0014323404
28	0x3c01a93f	0.007913887
29	0xbc05a6fc	-0.008157488
30	0x3b39d373	0.0028354793
31	0xbc203a31	-0.009779499

transformer_encoder.layers.0.linear1.weight f4 [2048, 32]
0	0xbe00ff5d	-0.12597413
1	0x3e0c53d6	0.13703856
2	0xbcd0806e	-0.025451865
3	0x3e025424	0.1272741
4	0xbd3c1410	-0.04591757
5	0xbd51fcfd	-0.05126666
6	0xbe02f805	-0.12789924
7	0x3e0c698f	0.13712142
8	0xbd4482ad	-0.047976185
9	0xbe17d8eb	-0.14828841
10	0xbe17fe64	-0.14843136
11	0xbde82181	-0.11334515
12	0xbdf3035b	-0.118658744
13	0xbd201342	-0.039080866
14	0xbcc10a60	-0.023564517
15	0x3ce331d2	0.027733717
16	0xbe1f2812	-0.1554263
17	0xbe002c1e	-0.1251683
18	0x3e01c832	0.12674025
19	0x3dedea30	0.11616933
20	0xbe237fea	-0.15966764
21	0x3dcf8285	0.101323165
22	0xbb505049	-0.0031786135
23	0xbde9b269	-0.11410982
24	0x3e1323af	0.14369081
25	0xbda46655	-0.08027331
26	0x3d75c8d4	0.060005978
27	0x3d91051e	0.07081054
28	0xbd65855f	-0.056035396
29	0xbd8dcb0f	-0.06923496
30	0xbd0621fc	-0.032747254
31	0x3d8da493	0.06916156
32	0xbdec75d5	-0.11545912
33	0xbe1763a3	-0.14784102
34	0xbe2af77b	-0.16695969
35	0xbe261a0a	-0.1622087
36	0x3d8dc151	0.06921638
37	0xbd6df15b	-0.058091503
38	0xbd8b8b86	-0.06813721
39	0xbe012c1b	-0.12614481
40	0xbe219ce5	-0.15782507
41	0x3dcce0d6	0.100038216
42	0xbcac6d7f	-0.021048306
43	0x3c80a67c	0.015704386
44	0x3d497c6a	0.049190916
45	0xbdc493ca	-0.09598501
46	0xbda0a0a3	-0.07843139
47	0x3dce5d65	0.10076407
48	0xbca6b1b1	-0.020348402
49	0xbd4e82fd	-0.05041789
50	0xbd449b53	-0.04799969
51	0x3e3ca315	0.18421586
52	0xbdd8d7e8	-0.10588056
53	0xbdbe19d0	-0.09282267
54	0xbdd9c16f	-0.10632598
55	0x3e050578	0.12990367
56	0x3db7ada4	0.08968666
57	0x3db0ba4b	0.086292826
58	0x3e1ab5d2	0.15108421
59	0x3b0b57fd	0.0021262162
60	0xbd53f4b0	-0.051747024
61	0xbe19bbcd	-0.15013047
62	0xbe20374c	-0.15646094
63	0x3dc1ca1a	0.09462376
64	0x3d07c467	0.03314629
65	0x3e12295f	0.14273594
66	0xbdd0aba5	-0.101889886
67	0xbde3a271	-0.111149676
68	0xbe22b887	-0.15890704
69	0x3e023d62	0.12718728
70	0xbdab8ada	-0.08376093
71	0xbe3f2de0	-0.18669844
72	0xbd8c2ab8	-0.068440855
73	0xbe05d2ea	-0.13068739
74	0xbe2ac373	-0.1667612
75	0xbd9290cc	-0.07156524
76	0xbe1e1eb7	-0.15441404
77	0x3e3d39ba	0.18479052
78	0xbddedc42	-0.108818546
79	0xbd3cc2d4	-0.04608424
80	0x3e1b113b	0.15143292
81	0x3d0586b3	0.032599162
82	0x3d828074	0.06372157
83	0x3df2779f	0.11839222
84	0xbe1140e1	-0.14184906
85	0x3e413b82	0.18870357
86	0xbe3cbe2e	-0.18431923
87	0xbe427d2d	-0.18993063
88	0xbcf6fb2a	-0.030149061
89	0x3d7c5b62	0.061610587
90	0x3de5398f	0.11192619
91	0x3d8e828a	0.06958492
92	0x3e0e436a	0.13892904
93	0xbde12f1e	-0.10995315
94	0xbe2571d9	-0.1615671
95	0x3ddfc925	0.10927037
96	0x3db39cb4	0.08770123
97	0xbc3c9b26	-0.0115116
98	0x3e32eb90	0.17472672
99	0xbe39037d	-0.18067737
100	0x3c5d97d5	0.013524969
101	0xbe100878	-0.1406573
102	0xbe1303a3	-0.14356856
103	0xbdcecc6e	-0.100975856
104	0xbdc634e3	-0.09678056
105	0xbe1b14b4	-0.15144616
106	0xbdc66f6a	-0.09689219
107	0xbdd67789	-0.10472018
108	0xbe280a69	-0.16410221
109	0xbd666f8d	-0.056258727
110	0x3d4a0ee7	0.04933062
111	0xbdd07dd9	-0.101802535
112	0xbb04bb5e	-0.002025328
113	0xbe40db58	-0.18833673
114	0x3d0ff710	0.035147727
115	0x3de0b47c	0.10971925
116	0xbd17b952	-0.03704197
117	0x3dc7100c	0.097198576
118	0xbd950b2e	-0.07277523
119	0xbe0b4025	-0.13598688
120	0x3ca5eef1	0.020255538
121	0x3b4d0029	0.0031280613
122	0x3e08ce2d	0.133599
123	0x3d80aa90	0.06282532
124	0xbdacafb8	-0.08431953
125	0xbe3407f5	-0.1758116
126	0xbdbb44a1	-0.09143949
127	0x3d472c68	0.048626333
128	0x3dfa1e76	0.12212841
129	0xbd3bed99	-0.045880888
130	0xbb86cfab	-0.0041141114
131	0x3d314397	0.04327735
132	0xbe308acb	-0.17240445
133	0x3e0c16a9	0.13680519
134	0x3c25d126	0.010120666
135	0x3d5a0734	0.053229526
136	0x3e210121	0.15723087
137	0x3d445057	0.04792818
138	0x3d1b6219	0.03793535
139	0xbd126c22	-0.035747655
140	0xbd5de483	-0.054173004
141	0xbe0c1d5f	-0.13683079
142	0x3d4c8488	0.04993108
143	0x3e2e77d4	0.17037898
144	0xbc1e7bfe	-0.009673117
145	0x3e139a08	0.14414227
146	0x3d99040b	0.07471474
147	0xbe22f34c	-0.15913123
148	0xbd354b83	-0.044261467
149	0xbdf9eb99	-0.1220314
150	0x3da1d5d8	0.079021156
151	0x3dcc6917	0.09980982
152	0xbdbbe739	-0.091749616
153	0x3dc3344d	0.0953146
154	0x3da7ed11	0.08199514
155	0xbcaa45bf	-0.02078521
156	0x3df48461	0.11939312
157	0x3c90eb64	0.017690368
158	0x3d81438f	0.06311714
159	0xbc0cc32f	-0.008591457
160	0xbc2579da	-0.010099852
161	0x3e3922a3	0.18079619
162	0x3d5c91c0	0.053849936
163	0x3cce99ec	0.02521988
164	0x3c425f81	0.01186359
165	0x3dad5e20	0.084652185
166	0xbd1c1d4e	-0.038113885
167	0x3d0d775c	0.034537658
168	0xbd87c1b0	-0.0662874
169	0x3d6e5684	0.058187976
170	0xbe3be59e	-0.18349311
171	0xbca40569	-0.020022111
172	0xbe281800	-0.16415405
173	0x3e1e6223	0.15467124
174	0xbccb9de1	-0.024855556
175	0xbc803856	-0.015651863
176	0x3e1a7571	0.15083863
177	0x3cdd6898	0.027027413
178	0x3e2f39b4	0.17111856
179	0x3daea33a	0.08527227
180	0xbe2c3054	-0.1681531
181	0x3ddea9f0	0.10872257
182	0xbe17d081	-0.14825632
183	0xbd81f788	-0.06346041
184	0x3cf11558	0.029429123
185	0x3d1255d7	0.035726395
186	0x3da2bb49	0.07945878
187	0xbe2458c0	-0.1604948
188	0xbb20d15c	-0.002453885
189	0xbdebe739	-0.115187116
190	0x3c481de1	0.012214155
191	0xbca6b136	-0.020348173
192	0x3e1c247e	0.15248296
193	0x3d194309	0.037417445
194	0xbd3e03ca	-0.046390332
195	0xbd801ef9	-0.062559076
196	0x3dab5a09	0.08366782
197	0x3e30745c	0.17231888
198	0xbda18f19	-0.07888622
199	0xbdb7dfa7	-0.08978205
200	0x3dfb1652	0.12260117
201	0xbdbd9d7a	-0.09258552
202	0x3e0670d9	0.13128985
203	0xbd23320a	-0.039842643
204	0xbddb83c5	-0.107184924
205	0xbdc1accb	-0.09456786
206	0xb7c615e2	-2.361363e-05
207	0x3e2551e0	0.16144514
208	0xbe0e3299	-0.13886489
209	0xbd905d34	-0.07049027
210	0x3e2e50c3	0.17022996
211	0x3cf0a98a	0.029377718
212	0xbe21a70e	-0.15786383
213	0x3db4672b	0.0880874
214	0x3cf72d6e	0.03017303
215	0x3e00733b	0.12543957
216	0xbcf7c60c	-0.030245803
217	0xbe153513	-0.14571027
218	0x3cb82ab3	0.022481298
219	0x3d241f33	0.040068816
220	0x3e0308aa	0.12796274
221	0xbe11451b	-0.14186518
222	0xbe360cc0	-0.17778301
223	0x3e23af07	0.15984736
224	0xbda8ae7e	-0.08236407
225	0xbde029ba	-0.10945459
226	0x3de7af79	0.11312766
227	0x3d7260ff	0.059174534
228	0xbde699b8	-0.11259788
229	0x3dacc381	0.08435727
230	0x3b0e9323	0.002175518
231	0x3d816cb3	0.06319561
232	0xbc3a33bd	-0.011364874
233	0xbcd2a7b0	-0.025714725
234	0x3e214262	0.1574798
235	0xbe09f229	-0.13471283
236	0x3d817fb9	0.06323189
237	0x3e1da671	0.15395524
238	0x3d75468e	0.05988174
239	0x3d398db1	0.045301143
240	0x3c0f9bd0	0.008765176
241	0xbd5933d9	-0.05302796
242	0xbd410ab7	-0.04712936
243	0xbdb776ad	-0.089581825
244	0xbd9ef581	-0.0776167
245	0x39a34cb3	0.00031146928
246	0xbd278c4d	-0.040905286
247	0x3c8431e9	0.01613708
248	0xbe1cd0f5	-0.15314086
249	0xbd26dbbf	-0.04073691
250	0x3de014c4	0.10941461
251	0x3ddc407d	0.10754488
252	0xbd390f58	-0.04518065
253	0x3c32215e	0.010872213
254	0xbdb73813	-0.08946242
255	0x3de1fb00	0.110342026

transformer_encoder.layers.0.linear1.bias f4 [2048]
0	0x3c6ab915	0.014326354
1	0x3dadfa38	0.08494991
2	0xbe029260	-0.1275115
3	0xbdaa5d04	-0.083185226
4	0xbe0fb67c	-0.14034456
5	0xbe272049	-0.1632091
6	0xbd014c74	-0.031567052
7	0xbdb69626	-0.08915357
8	0x3e2c7988	0.16843235
9	0xbdfe6675	-0.12421886
10	0xbcd0814c	-0.025452279
11	0x3d9f46ff	0.07777213
12	0xbde757c8	-0.1129604
13	0x3c4e9957	0.012609801
14	0xbe0b057f	-0.13576315
15	0xbca83c39	-0.020536529
16	0xbe40c924	-0.18826729
17	0x3e3bcf4f	0.183408
18	0x3ca79041	0.020454528
19	0xbdeabd3c	-0.11461875
20	0x3e15538f	0.14582656
21	0xbd962e70	-0.07333076
22	0xbcb9ffa6	-0.02270491
23	0xbe01b628	-0.12667143
24	0x3d6543ea	0.05597297
25	0x3d4408bc	0.047859892
26	0x3d8274ae	0.06369911
27	0x3d87ab32	0.0662445
28	0xbd7ac0f1	-0.06121916
29	0x3ddd0430	0.10791814
30	0x3da38d32	0.07985915
31	0xbe13e4a1	-0.14442684
32	0x3e2cba49	0.16867937
33	0x3e10f6f3	0.14156704
34	0x3dca35de	0.098735556
35	0xbdd62248	-0.104557574
36	0x3e2f0ac7	0.17093955
37	0x3e03214c	0.1280567
38	0xbe13ace0	-0.14421415
39	0xbdae8ba4	-0.08522728
40	0x3e2d6da6	0.16936359
41	0x3d6b41f4	0.057435945
42	0xbe058649	-0.13039507
43	0xbd4d354c	-0.050099656
44	0x3e012c3a	0.12614527
45	0x3c00a9d3	0.007852989
46	0x3cdf74ff	0.027277468
47	0xbd5c8c8f	-0.053844985
48	0xbe17c25d	-0.14820237
49	0x3d5de320	0.05417168
50	0xbe03dfc0	-0.12878323
51	0x3ca82178	0.020523772
52	0x3e1590d3	0.14606027
53	0xbdc77ee9	-0.09741003
54	0x3de47a2b	0.11156114
55	0xbde427ae	-0.11140381
56	0xbdaad713	-0.083418034
57	0x3d3daacc	0.046305463
58	0x3d578999	0.052621458
59	0x3d94ac26	0.07259397
60	0x3d2edc42	0.042690523
61	0x3d326c86	0.043560527
62	0x3dfc6dec	0.123256534
63	0x3cf99c21	0.030469956
64	0xbe254e92	-0.16143253
65	0xbc7d0245	-0.015442436
66	0x3e09227b	0.1339206
67	0x3deb5004	0.11489871
68	0xbdfd63a0	-0.123725176
69	0x3d0263bf	0.031833407
70	0xbdf359b8	-0.11882347
71	0xbe32fbd0	-0.17478871
72	0x3d88c41e	0.066780314
73	0xbd930531	-0.071787246
74	0x3d3f930b	0.04677109
75	0x3d8d7fb7	0.06909125
76	0x3dab478c	0.08363256
77	0xbc90d485	-0.017679462
78	0xbe16be87	-0.14721118
79	0xbe146ce8	-0.1449467
80	0xbdf4e348	-0.11957413
81	0xbe1a498f	-0.15067123
82	0xbd9f906e	-0.0779122
83	0x3dd85753	0.10563531
84	0x3d68cf8c	0.056838557
85	0xbde9d6cc	-0.114179224
86	0xbd2d767c	-0.042349324
87	0x3dff70e2	0.124727026
88	0xbd4e4edf	-0.050368186
89	0xbe204f72	-0.15655306
90	0xbdaa36d9	-0.083112426
91	0xbc4354a8	-0.011922039
92	0xbd1ae76d	-0.03781836
93	0xbc292b20	-0.010325223
94	0xbd3b836f	-0.04577964
95	0x3e12bea2	0.14330533
96	0x3e1ae213	0.15125303
97	0x3e1cdb5d	0.15318055
98	0x3b176e41	0.0023106488
99	0xbe274828	-0.16336119
100	0xbcef80f0	-0.029236287
101	0xbd0c48ad	-0.034248997
102	0x3ddf00fc	0.1088886
103	0x3d0498ef	0.03237241
104	0x3e0decb1	0.13859822
105	0xbb4902ee	-0.0030671912
106	0xbda8293e	-0.08210991
107	0xbc64c12c	-0.013962071
108	0x3c6f8698	0.014619492
109	0xbdd95a7f	-0.10612964
110	0x3d074c30	0.033031642
111	0xbd8c07ab	-0.068374
112	0x3d293ff2	0.04132075
113	0xbdaa105e	-0.08303903
114	0xbcf19bee	-0.029493298
115	0x3cefdd67	0.029280378
116	0x3affe9c8	0.0019524628
117	0x3d2d26b1	0.042273227
118	0x3d73f989	0.059564147
119	0xbd63efa6	-0.05564847
120	0xbda65813	-0.081222676
121	0x3d932476	0.07184689
122	0xbcc75774	-0.024333693
123	0x3e38f3fd	0.18061824
124	0xbdb03993	-0.086047314
125	0xbdf78c85	-0.12087349
126	0x3de9e1fc	0.11420056
127	0x3da512fa	0.0806026
128	0x3d133545	0.035939474
129	0xbccc7158	-0.02495639
130	0xbdf004ee	-0.1171969
131	0x3deadef5	0.11468307
132	0xbb3ed068	-0.002911592
133	0xbdaad2ae	-0.08340965
134	0x3c265c9c	0.010153916
135	0xbd4a40cb	-0.049378198
136	0x3e0cc2d0	0.1374619
137	0x3c2ae274	0.010429967
138	0x3cebbf82	0.028777841
139	0xbd289050	-0.041153252
140	0x3d9cd3d8	0.076575935
141	0xbd9ccfa2	-0.0765679
142	0x3e10efc5	0.14153965
143	0x3b5f6844	0.0034089247
144	0xbd38624b	-0.045015614
145	0x3e2c8ce9	0.16850628
146	0x3df3b1eb	0.118991695
147	0x3dcfad45	0.101404704
148	0x3e314d58	0.1731466
149	0x3d6a3ae7	0.05718508
150	0x3e2561b9	0.1615056
151	0xbd5cbde9	-0.05389205
152	0xbd4a18f2	-0.049340196
153	0xbe0c6b66	-0.13712844
154	0xbd350888	-0.04419759
155	0x3d9870b7	0.07443374
156	0xbd73a51a	-0.059483625
157	0x3de969dd	0.11397145
158	0x3e02daae	0.12778732
159	0x3dce253b	0.10065695
160	0x3d374871	0.04474682
161	0x3e0944a4	0.1340509
162	0xba42da4f	-0.0007433043
163	0x3d6ed1f2	0.05830569
164	0xbb7aab90	-0.0038249232
165	0xbd8848ca	-0.066545084
166	0x3e22ffe8	0.15917933
167	0xbbe841fd	-0.0070879445
168	0xbbbaee96	-0.005704711
169	0xbe04a25b	-0.12952559
170	0xbca61608	-0.020274177
171	0xbd9f7e7e	-0.07787798
172	0xbd4c5dba	-0.049894072
173	0xbdd076ec	-0.101789325
174	0xbd7680b6	-0.060181342
175	0x3e188ebc	0.14898199
176	0x3cd9c714	0.026584186
177	0xbd7a07a8	-0.061042458
178	0xbae6b94c	-0.001760283
179	0x3e17deb2	0.14831045
180	0x3d8b4c03	0.068016075
181	0x3dce64df	0.100778334
182	0x3dd6b29d	0.104832865
183	0x3de744a6	0.112923905
184	0xbd9a577c	-0.075362176
185	0xbd5b2c02	-0.053508766
186	0xbd944db1	-0.07241381
187	0x3cf47170	0.029839247
188	0xbe28a7e1	-0.1647029
189	0x3e21e8c2	0.15811446
190	0x3d154ac5	0.03644826
191	0x3dfee4c1	0.12445975
192	0xbddc99c5	-0.10771517
193	0x3c0f5e78	0.00875055
194	0x3e022926	0.1271101
195	0xbda81d2d	-0.0820869
196	0xbda05e20	-0.07830453
197	0xbd926831	-0.07148779
198	0x3e1a562c	0.15071934
199	0x3c303a90	0.01075615
200	0xbc3b3af0	-0.011427626
201	0x3b5c46b6	0.0033611483
202	0xbdb00401	-0.08594514
203	0x3d3c1db4	0.045926765
204	0xbda177b3	-0.07884159
205	0x3e00bc60	0.1257186
206	0xbdf03681	-0.11729146
207	0x3d3e3b76	0.046443425
208	0x3e17d174	0.14825994
209	0x3dfe9d69	0.12432367
210	0x3c14e942	0.009088816
211	0xbde3a019	-0.111145206
212	0x3ddbc694	0.10731235
213	0x3e1ae9d3	0.1512826
214	0xbe04e685	-0.12978561
215	0xbe155825	-0.14584406
216	0x3d299319	0.04140005
217	0xbe219a62	-0.15781549
218	0xbd54cee9	-0.051955137
219	0x3dd50e3d	0.10403106
220	0xbd8c8e0f	-0.06863033
221	0x3d272560	0.040807128
222	0x3d87efa0	0.06637502
223	0xbd15e022	-0.036590703
224	0x3db329a3	0.08748176
225	0xbe0ff09c	-0.14056629
226	0xbca70801	-0.020389559
227	0x3dd944f3	0.10608854
228	0xbe25c7b2	-0.16189459
229	0xbdcea7fa	-0.10090633
230	0x3ded1e61	0.1157806
231	0xbda83956	-0.08214061
232	0x3d1dd2cf	0.03853112
233	0xbd292429	-0.04129425
234	0x3de44473	0.11145868
235	0xbb8be3e4	-0.00426911
236	0xbd3df7c0	-0.04637885
237	0x3d0301b9	0.031984065
238	0x3d74c343	0.05975653
239	0xbd9e8c07	-0.07741552
240	0xbc7e7958	-0.01553186
241	0x3de5c751	0.11219657
242	0xbdc42c83	-0.095788024
243	0xbe14e9bd	-0.14542289
244	0xbdfd538d	-0.12369452
245	0xbc03c817	-0.008043311
246	0xbdb8d319	-0.09024639
247	0xbd91cf1f	-0.07119583
248	0xbe3a2ab7	-0.18180357
249	0x3cde54a2	0.027139965
250	0x3d520f53	0.051284146
251	0x3cf4d161	0.029884996
252	0xbe0d2800	-0.1378479
253	0xbd9c6030	-0.07635534
254	0xbd11edc8	-0.035627156
255	0x3e2fdefa	0.17174903
